checkpoints_clinical/clinical_ddpm_ema.pt (torch, 954436 bytes, 10 tensors)

time_mlp.0.weight f4 [256, 128]
000000 c9 31 80 bc bd 0b ee 3b 39 4a fe 3c 88 e9 f3 3c
       -0.01564874 0.007264583 0.031041251 0.029774442
000010 50 e0 8e 3d 98 c5 a8 3c 92 b5 ed bc 70 0e 65 bd
       0.06976378 0.020602033 -0.029017244 -0.05592197
000020 5b 5f 94 bd 1f f2 3a bd 6a 23 11 3d cc fb 68 3d
       -0.0724475 -0.04564106 0.035434164 0.056880757
000030 98 3c 8c 3d 9d 12 22 bd c3 36 18 3b 9a e5 d6 bc
       0.06847495 -0.039568532 0.0023226 -0.02623253
000040 65 b9 a0 3b 65 e9 f5 3c 04 a8 62 bb bc 0a 16 bc
       0.0049049133 0.030018518 -0.0034585008 -0.009157833
000050 de cb b7 bb 0c 0c be 3c dd 67 18 bd 2b 92 90 bd
       -0.0056090197 0.023199104 -0.037208427 -0.07059129
000060 28 4e 3b bb 61 44 15 bd e5 69 86 bd e9 a1 83 3c
       -0.002858052 -0.036442164 -0.065631665 0.016068416
000070 b3 de 59 bc db bb b0 bc b4 48 43 bd 52 98 68 bc
       -0.013297725 -0.021573951 -0.047676757 -0.014196472
000080 29 49 9b bd da 0a a5 3c 26 13 11 3b b9 a5 60 3d
       -0.075823136 0.020146776 0.0022136657 0.054845545
000090 70 f1 f5 3b f2 be 15 3c 3d 50 d7 3c 34 30 8e 3d
       0.0075055882 0.009139763 0.026283378 0.06942788
0000a0 59 d6 1f bd 30 14 62 3d 2d 89 c6 3c de 36 65 bd
       -0.039022777 0.055195034 0.024235332 -0.05596053
0000b0 a3 f2 08 3d 1a ac 4c bd e5 bc cb bc 25 2c 20 bd
       0.03343452 -0.049968816 -0.024870345 -0.0391046
0000c0 34 8f 69 bd c8 d4 93 3d 70 39 9b bd 61 0d 40 3d
       -0.057021335 0.07218319 -0.07579315 0.04688776
0000d0 3d 52 9c bd f1 2b 00 bc 62 63 05 3c b7 11 86 3d
       -0.07632873 -0.007822976 0.0081413705 0.065463476
0000e0 11 2e ed bc ff 4c e7 3c 03 7e 87 3c 1e 08 60 3d
       -0.02895263 0.028234957 0.01653958 0.05469524
0000f0 a7 7b 05 3c cd f2 12 3d 8c c9 4d bd c6 81 6e bd
       0.008147157 0.035876084 -0.05024104 -0.05822923
000100 c2 4e 99 3d f3 1d 8b bd c2 ed 9b bc 1c 7d 74 bc
       0.07485725 -0.06792822 -0.01903427 -0.0149224065
000110 13 de ac 3d 4a f0 d1 bc 23 49 7c bd 24 55 86 bc
       0.08440795 -0.025627274 -0.061593186 -0.01639802
000120 17 92 3a 3d c8 60 d3 3c 3b f1 9e 3d c5 e7 80 bc
       0.04554948 0.025802985 0.07760855 -0.015735516
000130 c3 82 04 3d 19 47 a7 bd 5f d6 07 3d 80 c3 26 3d
       0.032351267 -0.08167858 0.033163425 0.040713787
000140 22 ce 7f 3d a2 74 31 bd 7b 06 11 bc 43 7c 09 3d
       0.062452443 -0.04332412 -0.008851643 0.03356577
000150 7c e8 74 bd a5 68 8d bd 6a b7 9e bd 98 f6 54 3c
       -0.059792027 -0.06904725 -0.07749827 0.012998246
000160 0a 4f 65 3d a1 dd 5d 3c 2c 29 30 bc f3 e1 1e 3c
       0.05598358 0.01354161 -0.010752004 0.009697425
000170 96 33 a4 bd 7d 37 9c bc be 9f 53 bd c9 5c 92 bd
       -0.08017652 -0.019069428 -0.051666014 -0.071466036
000180 f8 c6 54 3d 8b c0 b4 bd 1a d6 8e bb 36 5f bd bd
       0.051947564 -0.08825787 -0.004359019 -0.09246676
000190 02 c8 87 bc 2b 46 53 bd df c9 8d 3c 64 c4 77 bd
       -0.016574863 -0.05158059 0.017308174 -0.060490027
0001a0 b2 31 3b 3d ac 67 a7 bd dc 41 2f 3d 57 b0 9b bd
       0.04570169 -0.08174071 0.042787418 -0.076019935
0001b0 0d 0b 19 3d 5c 6f 3f bd db bf 20 bc c3 d5 d1 bc
       0.037364054 -0.04673706 -0.009811367 -0.025614625
0001c0 e0 fe 42 3d 3c 99 9e 3c e2 36 b2 bd 47 52 b1 ba
       0.04760635 0.019360177 -0.08701874 -0.0013528549
0001d0 bd a6 8f bd b4 e7 66 3d fb 47 a5 3b 83 43 03 bd
       -0.07014225 0.056373313 0.005043981 -0.032046806
0001e0 c6 74 5e bd 00 82 ac 3c 4d 61 7e bd b1 74 04 3d
       -0.054310583 0.021058083 -0.062104512 0.032337848
0001f0 1b 39 1e 3d e1 c5 36 3d dd ba 5e 3c 35 07 b1 bd
       0.03862868 0.044622306 0.013594356 -0.08643953
000200 bc 55 65 3d 14 fc e2 bc 68 75 de bc 6f 15 84 bc
       0.055989966 -0.02770809 -0.027155593 -0.016123502
000210 30 18 82 3d dc 89 66 3d 88 c8 a1 3c 30 d2 2c 3d
       0.0635227 0.056283817 0.019748941 0.042192638
000220 11 8e a0 bd ad 5c 41 bc 04 9d 9d bd eb fa c4 3c
       -0.07839597 -0.011801881 -0.07695964 0.024045428
000230 2f f0 73 bd 77 d8 ee bc 45 76 71 3d 44 cd a9 3d
       -0.05955523 -0.029155953 0.05895068 0.082911044
000240 fd 88 24 bd 83 68 17 bd 2f 00 a6 3c bf d9 76 3d
       -0.040169705 -0.036964905 0.02026376 0.060266253
000250 58 71 55 3c 31 8d 05 bc 8b 65 0e bd ba af 94 3d
       0.013027512 -0.008151338 -0.034764808 0.0726008
000260 1c 80 04 3e a2 e6 a3 3a 8f 2e a2 3d d0 a5 91 3d
       0.12939495 0.0012504647 0.079190366 0.07111704
000270 5f b9 b6 3d ed 07 05 3a 47 41 f0 3b 74 e2 84 3d
       0.089220755 0.00050747284 0.0073320004 0.06488505
000280 44 0e 58 3d df 87 a7 3d bd fa 02 bd 34 41 dc 3c
       0.05274798 0.08180212 -0.031977404 0.02688656
000290 e4 a6 57 3d e6 b2 8d bd f6 fd f7 3b 79 6a f5 bc
       0.052649394 -0.06918888 0.0075681163 -0.029957997
0002a0 b1 a1 3c 3d ce ce 4d bd ce 98 99 bb 7a c4 2a 3d
       0.04605264 -0.050246052 -0.004687405 0.04169128
0002b0 4d c2 bb bd e9 f1 ae bd 93 54 66 bd c9 66 39 3d
       -0.09167919 -0.085422345 -0.056233 0.04526404
0002c0 80 c5 43 3d 47 1e 92 bd c1 34 b5 3b 26 2c 6d bd
       0.047795773 -0.07134681 0.0055299704 -0.05790343
0002d0 47 86 55 bd fc 53 84 3d dc b1 ff 3c db e8 10 bd
       -0.05213001 0.06461331 0.03121274 -0.03537832
0002e0 00 bc d6 3a de a0 bb 3b a0 04 18 3c 8c e1 29 bd
       0.0016382933 0.005725964 0.009278446 -0.041474864
0002f0 e2 6a 81 bd 2a 0f 40 3d 00 7e e2 39 37 47 d0 3c
       -0.063192144 0.04688946 0.00043199956 0.025424583
000300 88 13 24 bd 4d 1a 51 3d e8 33 74 3d c9 39 4d 3d
       -0.04005769 0.051050473 0.059619814 0.050103936
000310 e8 2e bf 3c 3e 89 a1 3d e7 db 54 ba 71 d1 80 3c
       0.023337796 0.07887505 -0.0008119926 0.01572487
000320 05 ed 87 3d 68 cb b1 3d 06 7f 4c bd 3a d3 91 3d
       0.06637005 0.08681375 -0.049925826 0.071203664
000330 a2 00 f3 3c f1 4d cb bb ce 76 82 3d f5 e7 62 bd
       0.029663388 -0.0062043597 0.063703164 -0.055396993
000340 0e cb 23 3d 71 ec a9 3d 5e 70 9d bd 64 c6 85 bd
       0.03998857 0.08297051 -0.07687448 -0.06531981
000350 4d 2f b0 bd 3a b8 81 bc 0e 22 b5 bd 13 4d 17 bd
       -0.08602772 -0.015834916 -0.08844386 -0.036938738
000360 2b dd 0f 3d 11 dc ba 3d 70 fc bf 3d b8 b5 d2 3d
       0.03512303 0.091240056 0.093743205 0.10288566
000370 f6 95 c1 3d a7 0b 01 3b 41 b4 99 bc 50 ee 43 3d
       0.09452431 0.0019690783 -0.01876271 0.047834694
000380 95 5c f8 3d d2 14 19 3d ac 75 aa 3c f9 cf 0c bd
       0.121270336 0.03737337 0.020808063 -0.034378026
000390 3b 0c a8 bc e2 ec 3d bd 12 cd b9 3d 65 40 a4 3b
       -0.020513644 -0.046368487 0.09072317 0.0050125592
0003a0 6a f8 71 bd f0 51 e2 3c 02 42 c6 3c 82 6b da 3b
       -0.059074797 0.027626961 0.024201397 0.006665648
0003b0 c8 0c 48 3d 55 20 84 3d e5 8d 86 bd cd 9d 4e bd
       0.048840314 0.06451479 -0.06570033 -0.05044346
0003c0 c4 f0 4f 3c 5f 8e 84 bd e5 3c 81 bd b8 91 c1 3d
       0.01269168 -0.06472468 -0.06310443 0.09451622
0003d0 40 6e 25 3c 74 07 db bc d2 f0 5b bc fc d2 54 bd
       0.010097086 -0.026736952 -0.013424115 -0.051959023
0003e0 2a f4 ae 3d a9 32 19 bb bb 1b 06 bd 68 d5 4c bd
       0.08542664 -0.0023376143 -0.03274129 -0.050008208
0003f0 f9 a2 8b 3d d6 cb 95 3b 77 6f f5 3b 2d 45 cb bb
       0.06818194 0.0045714183 0.0074900943 -0.0062033148

time_mlp.0.bias f4 [256]
000000 80 20 01 bd 57 3a 99 3d 29 5d ae bb f1 c1 36 bd
       -0.031525135 0.074818306 -0.005321164 -0.04461855
000010 4b 17 00 bd 14 58 47 bd 7e d5 7e 3d b0 b3 96 bd
       -0.031272214 -0.048667982 0.06221532 -0.073584914
000020 19 37 c0 bc a3 ea 1a 3d 15 4a c7 3d 79 4f aa bd
       -0.023463773 0.037821423 0.09730927 -0.083159395
000030 a2 14 b4 3c 75 1f 87 bd 99 cf 8d 3d dd ef 3e 3d
       0.021982495 -0.06597797 0.06924362 0.04661547
000040 55 21 8b 3d 1d 3a d0 bc 8b 49 81 bd d6 f3 44 bd
       0.06793467 -0.025418336 -0.06312855 -0.048084103
000050 d2 e8 cd bc 63 8d 25 3d c1 5e bf bc fd 49 85 3d
       -0.025135431 0.04041804 -0.023360612 0.06508253
000060 9b 04 9b bd 93 8a 75 3c 72 ba 5e bd 1f cc 9c bd
       -0.07569238 0.014986652 -0.054377027 -0.076561205
000070 32 2c 47 bd 30 ff aa 3c e5 de b5 bd a1 86 f4 3b
       -0.048626132 0.020873636 -0.088804044 0.007462338
000080 fc 51 34 bd 92 96 ee bc 8a 89 c9 3d 0f 0d 27 bb
       -0.0440235 -0.029124532 0.098406866 -0.0025489961
000090 4b c0 86 bd a0 0d 96 3d 26 92 96 bd cd 3f 4e 3c
       -0.06579646 0.073268175 -0.07352094 0.0125884535
0000a0 84 5e 60 bd 12 c3 5e 3d 76 83 73 3d b0 ad 39 3b
       -0.054777637 0.054385252 0.059451543 0.0028332286
0000b0 32 37 05 bc 10 73 6b bd e3 9f 37 bd 9b a5 29 3d
       -0.008130835 -0.05748278 -0.044830214 0.0414177
0000c0 3d b4 bb bd e4 c8 ad bc 3b ee b3 3d f7 2a 6c bd
       -0.09165237 -0.021213956 0.08785673 -0.057658162
0000d0 f1 35 6c 3c 32 d2 26 bd ed 99 79 3d 54 3d 51 bc
       0.0144171575 -0.0407278 0.06093781 -0.012770969
0000e0 46 7e ae 3d 3f 21 14 3d 22 bc eb bc ec 0b 02 3d
       0.085201785 0.03616452 -0.028776232 0.03174965
0000f0 60 5f ca 3b d2 aa 41 bc 81 6f d0 bc a4 a9 40 3d
       0.0061759204 -0.011820512 -0.025443794 0.047036782
000100 e9 40 87 3c bf 29 9a 3c db e4 3a bd 69 13 ad 3d
       0.016510444 0.018818734 -0.04562841 0.08450968
000110 1b 47 90 bd 7e be 24 3d 96 51 74 bd 7c f1 9b bd
       -0.07044812 0.04022073 -0.05964812 -0.07614419
000120 2e 89 5a 3d 83 e7 01 3d 0e 71 7f 3b 00 12 57 3d
       0.05335348 0.031714927 0.0038977298 0.0525074
000130 eb d0 61 3c b7 d7 24 3d 06 f4 9e bd 2c 5c 4f 3d
       0.01378272 0.040244784 -0.077613875 0.05062501
000140 bf 02 ab bc 1f bb 8e 3d 1b 8b c2 bd bc f5 2c 3d
       -0.020875333 0.06969284 -0.094991885 0.042226538
000150 95 f1 b0 bc 7a 8b 0e 3d 28 15 8e bd c3 bf a1 bd
       -0.02159957 0.034800984 -0.06937629 -0.07897904
000160 f2 11 32 3d 81 29 9e 3a 87 a2 61 bd df 0d 90 bd
       0.043474145 0.0012066812 -0.05508664 -0.07033896
000170 37 c3 a7 bd 6e d0 0a 3d c3 cf 66 3d 19 95 a3 bc
       -0.08191531 0.03389018 0.05635048 -0.019968556
000180 45 63 95 3d 95 88 91 3d 5f 1e 90 3c d7 b9 4b bd
       0.07294325 0.07106129 0.017592607 -0.049737778
000190 9f 35 4f bd 37 39 1a bc ae 8f 41 bd 9f aa 11 3d
       -0.050588246 -0.009413055 -0.047256164 0.035563108
0001a0 0b 3f 89 3d 78 78 e5 3d fb eb a5 bd c5 f1 93 bc
       0.067014776 0.11204618 -0.0810165 -0.01805962
0001b0 85 7d b1 3c ab a7 5a bc 1d 26 4e 3d b2 db 9f bd
       0.021666298 -0.013345639 0.050329316 -0.078055754
0001c0 a2 3e 69 3d f1 71 69 3c 70 87 91 3d a5 d5 ae bb
       0.056944497 0.014248357 0.07105911 -0.005335527
0001d0 e7 a9 fb 3c 82 6c 12 3d c0 03 80 bd e5 0b 68 bd
       0.030720664 0.035748012 -0.06250715 -0.05665197
0001e0 62 f6 4a 3d 4f 59 da bc 44 d0 9d 3d 1a ae f0 3c
       0.049551375 -0.026653914 0.07705739 0.029379893
0001f0 69 db a0 3c 5f 47 98 3d d8 cf 91 bc 09 6b 18 bc
       0.019635873 0.07435488 -0.017799303 -0.009302863
000200 e7 ea 6d 3d 02 20 05 3d 5e f6 6e 3d 34 03 a9 3d
       0.05808535 0.03250123 0.058340423 0.08252564
000210 4b 74 97 3d 4b e5 96 3d e3 6d e6 3b 51 fb 76 bd
       0.07395228 0.07367953 0.0070321425 -0.060298268
000220 6d 81 a4 bc c4 11 00 3c 60 a7 8d bb e8 01 80 bd
       -0.020081246 0.007816736 -0.004322931 -0.062503636
000230 56 59 c9 bc 3d a7 a8 3d 3f 16 5a bd 46 a0 90 3c
       -0.024578732 0.08235023 -0.05324387 0.01765455
000240 35 48 13 3c f1 b9 a8 3c 3c da b5 3c 8f 62 ae 3d
       0.0089893835 0.020596476 0.022198789 0.08514892
000250 72 f0 a2 3d 36 25 70 3d 9a c3 6f bc 93 0f 81 bd
       0.079560176 0.058629237 -0.014634037 -0.06301799
000260 f4 74 90 3d 1c 99 93 bd 1c 77 23 bd 0b c5 f8 bc
       0.07053557 -0.07206938 -0.039908513 -0.030367395
000270 27 e8 31 3c c8 c6 03 3d 22 64 50 3d f6 d5 eb 3c
       0.010858572 0.032171994 0.050876744 0.028788548
000280 89 81 8c bd c3 44 03 3d 05 79 33 bd 44 28 61 3d
       -0.06860644 0.032048 -0.043816585 0.05497004
000290 fd 62 7b bd ff 17 fb 3b 4f 3a c2 bd 14 a3 a5 3d
       -0.0613737 0.0076627727 -0.09483778 0.08087745
0002a0 67 5c 08 3d 3a 0b cf 3b 67 36 a0 bb 13 98 28 3c
       0.033291247 0.006318477 -0.0048892978 0.010290164
0002b0 82 6a 89 bd 03 ad 80 bd 19 a0 43 bc e5 25 9a 3d
       -0.06709768 -0.06282999 -0.011940026 0.07526759
0002c0 c3 c3 fc 3c 5a ce 9f 3d 74 2c 9d 3d b9 5e 25 3d
       0.030855065 0.0780303 0.076744944 0.040373538
0002d0 f5 a7 5c bd 6d e3 03 3d 6f 3f 5e bd 5b 43 ff 3a
       -0.053871114 0.032199312 -0.054259714 0.001947503
0002e0 50 4d 2f bd 78 91 77 3d 15 d7 f4 bc 28 2f 78 3d
       -0.04279834 0.060441464 -0.029887715 0.060591847
0002f0 45 2c 38 3d 33 e1 73 3d 53 b2 93 3d e1 cf 16 3d
       0.044964094 0.05954094 0.07211747 0.036819343
000300 89 4d cd bc 24 f4 ff 3c e1 c0 a7 3d 2c b1 9c 3d
       -0.025061386 0.031244345 0.081910856 0.0765098
000310 e3 31 37 bd b1 87 44 3d 23 d6 f0 bc ea dd ba 3d
       -0.04472531 0.047980968 -0.029398983 0.09124358
000320 cb ca 03 bd af 4e 9f bb 5c 29 7d 3c fb c8 74 bd
       -0.03217582 -0.0048616747 0.015451755 -0.059761982
000330 2b bb 12 3d 09 ef 63 3d 7f fe 99 bc 24 6a 8d bd
       0.03582303 0.055647884 -0.018798111 -0.0690501
000340 d8 2b b8 bd a6 9d 3b bd 33 99 80 bd 0b 95 00 3d
       -0.089927375 -0.045804642 -0.062792204 0.03139214
000350 7e ae 32 bd 9d 2e 20 bd 49 fa 8a 3d eb 33 ee 3c
       -0.04362344 -0.039106954 0.06786019 0.02907749
000360 b8 65 75 bd ec 44 03 3d 29 bd 95 3d 0c 77 41 bd
       -0.05991146 0.03204815 0.0731147 -0.047232673
000370 b5 4f ef 3c aa 1f fc 3a 3c 22 90 bd 67 fc 1d bd
       0.029212812 0.0019235511 -0.0703778 -0.038570788
000380 2c 51 ad bd 7d 03 84 3d f8 46 bd 3d f9 49 76 bd
       -0.08462748 0.06445978 0.09242052 -0.06012914
000390 49 06 70 3d 68 55 db bc 57 14 66 bc c1 5f 4e 3c
       0.058599744 -0.026774123 -0.014042935 0.012596072
0003a0 a8 d6 15 3d 4e 54 f5 3c 3b 1a c8 bd 9e c0 cf 3c
       0.036581665 0.029947426 -0.09770628 0.025360402
0003b0 3f ca d2 bd 02 da cb 3d f4 1a a1 3d bf be 94 bd
       -0.10292482 0.09953691 0.07866469 -0.072629444
0003c0 d1 b4 49 3d cd af 28 3d 2d e5 5f bd f8 a0 23 3d
       0.049244706 0.04118328 -0.05466192 0.039948434
0003d0 7d b1 54 bd a7 f4 9d bd e6 60 45 bd 2a b3 2e bd
       -0.05192708 -0.07712679 -0.048188113 -0.042651333
0003e0 15 14 54 bd 96 b5 f8 3b 9c c0 be 3d 41 85 07 3d
       -0.051776964 0.007590006 0.09314081 0.033086065
0003f0 32 5d 1c 3c ea 9c af bd ec 40 29 3d cd b6 c1 3d
       0.009543704 -0.08574851 0.04132168 0.094586946

time_mlp.2.weight f4 [256, 256]
000000 7f 47 3d bc 4b 46 2b 3d 1d 2c 72 3d 19 44 2d 3c
       -0.0115526905 0.041815083 0.0591241 0.010575318
000010 74 c3 8d bd 25 c0 58 bc f9 7b 84 bb 18 d1 41 3c
       -0.06922045 -0.013229405 -0.004043099 0.011829637
000020 c7 5b 41 bc c4 32 7c bc 45 63 3e bc 8b fc 9d bc
       -0.011801667 -0.015392963 -0.011620347 -0.019285461
000030 6e 9e 09 bd 53 a5 1f bd 14 35 15 3a 5a 95 1a 3d
       -0.033598356 -0.038976025 0.0005691808 0.03774009
000040 62 00 83 3d 0a 04 6a 3d de 32 4e bd 87 01 9c bc
       0.063965574 0.05713276 -0.05034148 -0.019043697
000050 60 6c 26 bc f4 87 1d 3d f5 b5 58 3d 9f 01 11 3d
       -0.010157675 0.038459733 0.052907903 0.035401937
000060 ce 83 3a 3d e8 f2 e6 bc 00 59 78 3d 9e af eb bc
       0.045535855 -0.028191999 0.060631752 -0.028770264
000070 6b 90 3b bc 8e ee 0a 3d 3b a8 1e 3d 3e 9c 0d 3d
       -0.011448006 0.03391891 0.038734656 0.034572832
000080 7b 43 8a bd 39 65 23 3d 93 1d 45 bb 99 e4 1e 3d
       -0.06751152 0.039891455 -0.0030077442 0.038792226
000090 76 8c 3b bc ce 79 db bc 13 b2 06 bc 69 27 41 3b
       -0.011447063 -0.02679148 -0.008221167 0.0029472953
0000a0 41 8f fd 3c 2c 64 29 bc 0a 33 71 bd 32 58 34 3d
       0.030952098 -0.010338824 -0.058886565 0.044029422
0000b0 00 12 3b bd b0 08 81 bd 40 68 0a 3c 1c b5 da 3b
       -0.045671463 -0.06300485 0.008447707 0.006674422
0000c0 0a ab 8f bc 87 49 80 3c 1d d9 b9 3d 66 b9 6d 3a
       -0.017537612 0.01566006 0.09074614 0.0009068459
0000d0 67 8b 7b 3c 2d 15 12 3d f2 56 47 3a ce b2 93 bc
       0.01535306 0.035664726 0.00076042034 -0.018029597
0000e0 f2 ad 19 3d 07 20 11 bd d2 8e 40 3d 52 15 04 3d
       0.037519403 -0.035430934 0.047011204 0.032246895
0000f0 89 46 cf 3c 41 2d b5 3b dd 41 37 3d 5a 1d 4a 3d
       0.025302188 0.0055290763 0.044740546 0.049344398
000100 7e 36 74 3c e9 0e 45 bd a5 ea 0a bc cc 54 c0 3c
       0.01490557 -0.048109923 -0.008478795 0.023477934
000110 17 4a 09 3d 04 b9 82 3d 04 c6 a6 bd 16 28 3e 3d
       0.033517923 0.06382945 -0.08143237 0.046424948
000120 15 5f c9 3c 06 75 fc bc f1 5c 4b bd 52 a8 24 3d
       0.024581471 -0.03081752 -0.049649183 0.040199585
000130 d7 f4 3b 3d 83 e8 64 3d 98 dc b3 3c b9 61 8a bd
       0.045887794 0.055885803 0.021955773 -0.0675692
000140 c2 5c 94 bd ca 73 2a bb d1 be 27 bd 3f 48 6f bd
       -0.07244255 -0.0026008957 -0.04095346 -0.05841851
000150 3f 3c ad bd 05 39 74 3c 4e 83 ab 3b 9e fa 83 3c
       -0.08458757 0.014906173 0.0052341586 0.016110715
000160 b0 9c 53 bd c7 ec d0 bc 11 3e 3d 3c 96 93 b6 3c
       -0.0516631 -0.02550353 0.011550442 0.022287171
000170 e5 57 81 3c e9 03 04 3d 18 9f 55 bc 4d 8f 63 bc
       0.015788982 0.03223029 -0.013038419 -0.013889146
000180 39 3b 53 bc 50 96 a9 3c d9 da 01 3d a3 c6 9b bc
       -0.012892538 0.020701557 0.03170285 -0.019015616
000190 08 25 5f 3c 2e e4 8d 3d 88 d3 61 bd df 4a 7e 3c
       0.013619669 0.069282874 -0.055133373 0.01552078
0001a0 99 37 c2 3c a9 96 4a bd 2f 67 35 bc 50 85 1f bd
       0.023708152 -0.049460087 -0.011071964 -0.038945496
0001b0 a0 fa 71 3c 93 9f 8e 3c d4 78 0f 3d 7c 5c 01 3d
       0.014769226 0.017410075 0.03502734 0.03158234
0001c0 69 24 23 3d e3 10 a1 3d 05 7a fb 3c 5d df 1d 3d
       0.039829645 0.07864549 0.030697832 0.038543094
0001d0 ed fa 2f 3d 80 81 40 3d ae 60 67 bb 78 97 4f bd
       0.04296391 0.0469985 -0.0035305428 -0.05068156
0001e0 f4 03 78 3a 72 8f 25 bb 36 c5 5c bc ea 64 de 39
       0.0009461038 -0.0025262502 -0.013474753 0.00042418326
0001f0 c4 f8 59 bc b5 08 3a bc 05 8e 8b 3d 03 36 31 bc
       -0.013303939 -0.011354615 0.068141975 -0.0108161
000200 a7 ae 1c 3d ca c1 6f bb ef bf b1 3c 47 bb 41 bd
       0.0382525 -0.0036584013 0.021697966 -0.047297742
000210 f0 5e 9e 3c 77 43 83 bd 0a 78 80 3c 7a 6f 56 bc
       0.01933238 -0.06409352 0.01568224 -0.0130881015
000220 00 8b 0d 3d 09 5a 07 3d c3 42 42 3c 8c b5 47 bb
       0.03455639 0.03304485 0.011856738 -0.00304732
000230 4c 52 68 bc b9 53 9f bc 35 b6 58 bd 70 81 1f ba
       -0.014179777 -0.019449102 -0.05290814 -0.00060846563
000240 d9 fa b8 bc eb be 8a 3d 80 79 25 3d 62 c2 ed 3a
       -0.022580551 0.06774696 0.040399075 0.0018139596
000250 72 e7 4c 3d 0f 06 06 3c f4 45 57 bd 1d 8a 9e bc
       0.05002541 0.008180155 -0.052556947 -0.019352967
000260 00 a0 86 3d ba 9d c5 3c db 06 62 3c 7d ed 99 bc
       0.06573486 0.024123061 0.01379558 -0.018790001
000270 90 34 08 3b 8b 24 85 3c 17 42 1c bd 08 ab 52 3b
       0.0020783283 0.016252777 -0.038148966 0.00321454
000280 72 a9 6d bd 54 fe 27 3c 74 f7 e8 3c 20 13 3b bc
       -0.058022924 0.010253508 0.028438307 -0.011418134
000290 59 93 12 3d 21 e6 38 3c b0 e3 52 bd fb 50 16 bc
       0.035785053 0.011285336 -0.05148667 -0.009174581
0002a0 2d 41 8c bd c7 ee f2 3c 31 85 04 3d 74 de 26 bc
       -0.06848369 0.029654874 0.032353584 -0.010184873
0002b0 62 ea 4f bc 30 dc 10 3d b3 67 de 3c a8 45 1b 3d
       -0.012690159 0.035366237 0.027149057 0.037908226
0002c0 f2 45 29 3c b8 51 53 3c ae c9 81 3d fa 89 00 bd
       0.010331618 0.012897901 0.063372955 -0.031381585
0002d0 8c dd 45 3d a1 e4 a9 b9 2a 8f 34 bd 1f 5c 73 3d
       0.048306987 -0.00032404534 -0.044081844 0.059414025
0002e0 cb 6b 94 3d 6d 20 91 3d 61 e6 a6 3c c4 23 69 3c
       0.072471224 0.07086263 0.020373525 0.014229719
0002f0 00 2f 03 bc 82 c6 c6 3c 32 cb 36 3c d5 97 7d 3c
       -0.008006811 0.024264578 0.011156844 0.015478094
000300 38 f2 29 bc 0b 3f 37 bd a5 43 07 3d 88 f5 d9 3c
       -0.010372691 -0.044737857 0.033023495 0.026606336
000310 63 d4 5d 3c 6d 5b 7c 3d 96 ab 49 3c f0 62 87 bc
       0.0135394065 0.061610628 0.012308976 -0.01652667
000320 4a 49 44 3d 05 c4 b4 3c d3 02 11 bc 18 fc 3a 3d
       0.047921456 0.022066126 -0.008850771 0.04565057
000330 66 7e dd bc 7c 4c 96 bc 7f 48 5a 3d 39 70 f0 bc
       -0.02703781 -0.018347017 0.053291794 -0.029350387
000340 5e 79 ef bb 20 a7 5e 3d cb 6c 8e 3d 5c 69 ba 3c
       -0.0073081693 0.0543586 0.06954344 0.022755317
000350 cb 15 5c 3b 34 82 87 bd 17 68 b5 bc ce 35 34 3c
       0.0033582326 -0.06616631 -0.02214436 0.010999156
000360 ce 5f 92 bb b8 c2 e8 bc 56 7b 90 bd 62 9e 22 3d
       -0.004466987 -0.028413162 -0.070547745 0.039701827
000370 81 de 14 3c 85 38 52 bd 12 27 59 bd 3b 50 32 bc
       0.009086252 -0.051323432 -0.053015776 -0.010883386
000380 dc d7 56 3d 5a f6 31 bd 92 8c 84 bc 68 af 89 bd
       0.052451953 -0.04344783 -0.01618031 -0.06722909
000390 e1 cf 6a 3d de 16 93 3d 67 cf de 3c fd 13 62 3d
       0.057327155 0.07182096 0.027198507 0.055194844
0003a0 8b 2c e7 3a 18 fb 2a bd 2b 9e 0b bd 23 53 c0 3c
       0.0017637176 -0.041743368 -0.034086388 0.023477143
0003b0 e7 b3 3e 3d c0 99 8f 3c 9b 68 96 3c ae d2 80 3d
       0.046558287 0.017529368 0.018360427 0.06290184
0003c0 7f a9 0b bc 9b 77 89 bd d2 34 24 bd 96 14 ba bd
       -0.008524298 -0.06712266 -0.040089436 -0.09085958
0003d0 03 cd b5 3c 2c 15 25 bd 68 47 b3 bc e3 c2 c3 bc
       0.022192484 -0.040303394 -0.021884635 -0.02389664
0003e0 e0 e0 27 bb 08 62 1b 3d b8 97 c5 bb 3a ef 47 bc
       -0.0025616214 0.037935287 -0.006030049 -0.012203032
0003f0 bc 4f 6d 3d 66 8e 51 bd b7 41 77 3c 68 95 15 bd
       0.05793737 -0.051161192 0.015091351 -0.036519438

time_mlp.2.bias f4 [256]
000000 77 ac 98 3b 90 42 15 bc 14 fe 4d bd 78 d0 77 3c
       0.0046592313 -0.009110108 -0.050291136 0.015125386
000010 87 c2 11 3d f6 f4 0b 3d 22 64 66 3d ff 04 4d 3d
       0.035585906 0.03416916 0.056247838 0.050053593
000020 4c 56 c2 3c 90 27 6d bb 5f 66 35 bd 4f 8b 76 bc
       0.02372279 -0.0036186911 -0.04428708 -0.015047862
000030 b9 1b e0 bc d7 55 94 3d 66 d0 62 bc f1 ab a3 3c
       -0.02735697 0.07242935 -0.013843631 0.019979449
000040 b3 68 3b bd 95 10 df 3c 08 4a 3b bd 82 09 ae 37
       -0.045754146 0.027229587 -0.0457249 2.0746844e-05
000050 e7 17 45 3d 65 09 79 3c 5f 49 4b 3d 2b 3a 88 bc
       0.0481185 0.015199994 0.04963052 -0.0166293
000060 da af 5d bd 93 73 b8 b7 e9 90 5c 3d f8 8f ae bc
       -0.054122783 -2.1988328e-05 0.053849135 -0.021308884
000070 e7 de 66 3d 62 a9 61 bd e0 34 76 3a 64 9e 91 3c
       0.05636492 -0.055093177 0.0009392034 0.017775722
000080 98 1b 5a bd 01 ca d6 ba d7 96 91 3c 7a 9c 18 3d
       -0.05324897 -0.0016387106 0.017772121 0.037258603
000090 c6 7d 77 3d 43 a9 80 3c ca c7 d7 3b 69 ba 6c bc
       0.06042268 0.01570571 0.006585096 -0.0144487405
0000a0 97 b1 1a bb 47 74 89 3c d8 9a d5 3c 9c 83 dc bc
       -0.0023604387 0.016779078 0.026074812 -0.026918225
0000b0 bc c8 59 bc 30 95 80 3d 39 96 c6 bc de b5 02 bd
       -0.013292488 0.06278455 -0.024241554 -0.031911723
0000c0 3b 8d 9a 3c 64 b1 b1 3c a6 7a c3 bb 50 2a 0c 3c
       0.018866172 0.021691032 -0.0059655486 0.00855501
0000d0 47 d3 52 3d b5 ea 45 bb c8 74 83 3a 6a ae 82 3d
       0.05147102 -0.003019971 0.001002931 0.06380923
0000e0 28 dd 21 3d 45 a3 8c bc 7b fd 17 bc 06 61 67 bc
       0.03951755 -0.017167697 -0.009276743 -0.014122253
0000f0 85 13 98 3d 26 a1 81 3d 8b 9e d9 3b 91 67 42 3b
       0.07425598 0.06329565 0.0066412142 0.0029663781
000100 07 31 63 bd 26 75 26 3d f1 c0 62 3d 78 f3 61 3d
       -0.055466678 0.040639065 0.055359785 0.05516383
000110 aa ec 11 bc 51 1b 2c 3d 16 be 9a bc 17 93 2a bd
       -0.008906523 0.04201824 -0.018889468 -0.041644182
000120 38 48 28 3d ed 04 81 bd e7 bb 82 bb 40 61 0e bc
       0.0410845 -0.06299768 -0.003989685 -0.008690178
000130 b1 fa 6a 3d 62 3d 08 bc 43 c8 01 bc c0 81 32 bd
       0.057367984 -0.008315416 -0.007921281 -0.04358077
000140 e7 82 39 bd 40 36 9e bc 1f 37 33 3d 26 a8 8a 3d
       -0.045290854 -0.019312978 0.04375374 0.06770353
000150 04 c0 ab 3c bb 39 1f bc cf 59 84 3d 82 f1 9a 3c
       0.020965584 -0.009718354 0.06462442 0.018913988
000160 fa f3 23 3d 1f 6c 4a 3d c4 fa 30 3c ea 6c ac 3c
       0.040027596 0.04941952 0.010801975 0.021048028
000170 82 4a 01 3d 4b e9 42 bd a3 7e 1c bc c1 5b 71 bd
       0.031565197 -0.047585767 -0.009551677 -0.058925394
000180 d8 32 ee 3c b1 14 90 3d 93 3f bf bc 49 9d 60 bd
       0.029076979 0.070351966 -0.023345744 -0.0548375
000190 50 21 4a bd 5e 66 b6 bc 05 b8 89 bd c7 42 53 3d
       -0.049348176 -0.02226561 -0.06724552 0.051577356
0001a0 9f 72 9e bc 0d 71 6a 3d 65 79 6d bc 97 93 92 bd
       -0.019341765 0.05723672 -0.014494275 -0.07157057
0001b0 61 12 ca 3c df 23 3d bd 87 20 1d bd fa d3 91 bd
       0.024666967 -0.046176787 -0.0383611 -0.071205094
0001c0 d1 62 fa bc 96 95 2a bd b0 d2 26 bc 15 1c 78 3d
       -0.030564697 -0.041646563 -0.010182068 0.060573656
0001d0 9c 6b 4b bd a8 5b f0 3c 23 7f 28 bd 32 f7 a9 3c
       -0.04966317 0.02934058 -0.041136872 0.020747755
0001e0 6f 3c 87 bd cc d1 48 bc 73 92 57 bc 5e 5a 10 3d
       -0.06603324 -0.012257051 -0.013157475 0.03524243
0001f0 7f 5c 13 bd a7 02 a8 bc 87 e0 25 bd db 21 69 3d
       -0.035976883 -0.020509077 -0.04049733 0.056917053
000200 56 4c 6a bd 56 a4 00 3d e5 44 f8 3c c8 4f 83 bc
       -0.057201706 0.031406723 0.030306289 -0.016029254
000210 71 9c db 3b 05 dc a4 bc df 02 0e bc b7 ca 12 3d
       0.006701999 -0.020124445 -0.008667677 0.035837855
000220 23 f2 86 3b 1e a6 30 3d c0 7d 9a 3c a0 78 2d 3d
       0.0041182204 0.04312717 0.01885879 0.042351365
000230 68 39 2b 3d 73 97 29 3d bf e3 84 bb 9d 75 a6 3c
       0.041802794 0.0414042 -0.0040554698 0.020319754
000240 fc 8c 3a bc be e2 2a 3d 6b a6 0f bd 6a 96 22 bc
       -0.011386152 0.041720144 -0.035070818 -0.009923557
000250 57 04 ca bc 00 d5 f3 bb d2 76 2c 3d ed 5a 70 3d
       -0.024660273 -0.007441163 0.042105503 0.058680464
000260 63 5d 4d bd 5a dc 1c 3d c3 cc 30 3b 6a f6 d3 3c
       -0.05013789 0.03829608 0.0026977516 0.025874335
000270 f7 26 54 bb 26 85 36 bd a7 8d 7a 3d 12 c9 87 bc
       -0.0032371858 -0.044560574 0.061170246 -0.01657537
000280 1f 53 4f 3d 4c 40 17 bd 23 a3 f4 3c 65 52 50 3d
       0.05061638 -0.036926553 0.029862946 0.050859828
000290 64 f9 30 3d b2 e0 28 bd 06 42 c0 3b d1 3b 95 3d
       0.043206587 -0.04122991 0.0058672456 0.072868
0002a0 1b 73 e5 3c 29 b0 0d bd 08 7c 9d bc 24 34 7a 3c
       0.028008988 -0.034591828 -0.019224182 0.01527122
0002b0 91 7d b5 bc 0c 50 8f 3c fa 01 07 3c 16 83 54 3d
       -0.022154601 0.017494224 0.008240217 0.051882826
0002c0 ac 56 3f 3d 69 1c 37 3c b5 09 5e 3d fd 10 82 3d
       0.046713516 0.011176207 0.054208476 0.063508965
0002d0 28 13 62 3d de c4 16 3d 18 e5 5f 3d 0e c4 90 bc
       0.05519405 0.03680884 0.05466184 -0.017671611
0002e0 a6 fa 6f bc 03 1c 84 3d 0d 34 27 bd 58 4b b2 bc
       -0.014647162 0.06450655 -0.040821124 -0.021764442
0002f0 11 3c 74 3c bf 8d 30 3d 18 c6 a6 3c 33 78 41 3d
       0.014906899 0.04310393 0.02035813 0.04723377
000300 95 f3 20 bd d1 c0 1f bc 6b 37 ed bc 47 78 87 bd
       -0.039294798 -0.009750561 -0.02895709 -0.06614738
000310 aa 06 06 3d 40 b7 6a bd 4c fa b2 bc 91 49 c0 bb
       0.0327212 -0.057303667 -0.021847866 -0.005868145
000320 fd c5 7d bd 6b 73 62 3d 4f 21 0d 3d 7d 23 d9 3c
       -0.061956394 0.055285852 0.034455594 0.02650618
000330 a0 7c 8d 3d c2 a5 55 bc 5d a4 0c bd 64 80 2c bd
       0.06908536 -0.013040008 -0.034336437 -0.04211463
000340 0e cf 44 3d ec be 01 3d 33 66 6c bd cd bc f2 3c
       0.048049025 0.031676218 -0.057714652 0.029631043
000350 36 1c 6b 3b ed 2b 61 bd 6f 25 88 bd cc 7c 37 3c
       0.003587497 -0.05497353 -0.06647765 0.0111991875
000360 2d 7e 9c 3c 12 8d 42 3c e4 fb 83 3d a2 89 9a 3b
       0.019103134 0.011874454 0.06444529 0.004716114
000370 6a 78 17 bb 61 a6 63 3c 41 ed 23 3d 93 b1 74 3d
       -0.0023112544 0.013894648 0.040021185 0.05973966
000380 6e 46 2e bd fa 3f 6e 3d 94 b6 62 bd 32 86 0f bd
       -0.042547636 0.05816648 -0.0553499 -0.035040088
000390 65 2e 64 bb 61 d2 cd 3c 8f 01 18 3c 97 ae 4c bd
       -0.0034817692 0.02512473 0.009277715 -0.04997119
0003a0 61 0a 82 bc 0d cb a6 bc cf c2 04 bc 38 34 0d bd
       -0.01587409 -0.020360494 -0.008103087 -0.034473628
0003b0 65 4c 6f bc bb e9 b7 3c c4 42 ca bb f9 31 f3 ba
       -0.014605616 0.022450319 -0.00617251 -0.0018554322
0003c0 ee 12 a1 3c 7e 5e 79 3c ea b3 14 3c d7 69 4f 3d
       0.019662347 0.015220283 0.009076098 0.050638046
0003d0 68 e3 5b 3d 13 d8 12 3b a9 14 4d bd 23 f7 3d 3d
       0.05368367 0.0022406622 -0.05006853 0.046378266
0003e0 02 82 83 3d 72 f0 ed bc 65 f2 fd bb 6a 40 1d bc
       0.064212814 -0.029045317 -0.007749843 -0.009597877
0003f0 9f 36 1a 3c 4d 5f 41 3d 73 d9 f2 3c c5 55 88 bd
       0.009412437 0.047210027 0.029644703 -0.06656984

net.0.weight f4 [256, 270]
000000 f7 4e 2e bb da 56 d9 3c e9 8d a1 bd 92 85 c0 bd
       -0.002659736 0.026530672 -0.07888395 -0.094004765
000010 db ca a3 bb 40 29 dc 3d 82 86 21 3d 1a b0 53 bd
       -0.0049985475 0.10750055 0.039434917 -0.051681615
000020 df 6f dc 3d 7c b7 d3 bc 01 cb 10 bd 04 54 94 bd
       0.10763525 -0.025844328 -0.03534985 -0.07242587
000030 d8 e5 9e bd bd 2b 33 ba 8e da 4d bd 1d f4 8a bd
       -0.07758683 -0.00068348256 -0.050257258 -0.06784842
000040 54 10 67 bc 23 fa e1 3c 54 7f a2 3c 8f 03 34 bd
       -0.014103014 0.027585095 0.019836105 -0.043948706
000050 6d f2 84 3d bb 64 17 3d 47 c5 30 3c 9c 48 c4 3c
       0.064915515 0.0369613 0.010789222 0.023960404
000060 37 a8 4f 3b fe 59 04 bc d8 5f bf 3b fb 2a 03 3c
       0.0031685957 -0.008078096 0.005840283 0.008005853
000070 93 95 80 bc c0 b7 83 3d 7c 8f ff bc 63 4f f7 3c
       -0.015696323 0.06431532 -0.031196348 0.030189222
000080 06 32 b4 3c 1b d8 06 bd 98 0e 63 ba d6 1a 56 bd
       0.02199651 -0.032920938 -0.00086615374 -0.052271686
000090 e9 d1 41 3d 49 9f 07 bd 9e 73 8b bd db cb 3c 3d
       0.047319327 -0.03311089 -0.068091616 0.04609285
0000a0 c5 4a 55 bd fa 79 5c 3c 9f cc 6f 3a 1b 57 19 3d
       -0.05207326 0.013456816 0.00091476174 0.037436586
0000b0 4e c7 af 3c df 3b a7 bc 44 ef d7 3c f3 f1 4d 3c
       0.02145734 -0.020414291 0.026359208 0.012569892
0000c0 65 a7 78 3c 8f de d2 3c 68 df c4 bc e5 8b 9a 3c
       0.015176629 0.02574089 -0.02403231 0.018865535
0000d0 0c bc ee bc 79 07 33 3d 63 d6 0f 3d a1 49 18 3d
       -0.029142402 0.0437083 0.035116564 0.037179593
0000e0 47 8e 72 3c 44 3b 41 3b 7a b5 16 3d c2 20 0f bd
       0.014804429 0.0029484788 0.036794163 -0.03494335
0000f0 f0 13 bc 3b 46 3b 97 bb 89 21 9f bc b7 d8 46 3c
       0.0057396814 -0.0046152202 -0.01942517 0.01213663
000100 b6 63 0a bc 7f 22 60 3d f5 fc be 3c dd 04 76 bc
       -0.0084466245 0.054720398 0.023313979 -0.015015808
000110 7a a9 b9 bc 53 d4 fc bc 5e e0 b8 3c b6 2e 75 3d
       -0.02266382 -0.030862963 0.022567924 0.059859
000120 cf 26 9e bd de ce aa bc 9d bb 38 bd f5 25 66 bc
       -0.07722246 -0.020850595 -0.045100797 -0.014047136
000130 a9 06 82 3c d8 e3 c8 bc 40 61 68 bd bc 7d 8c 3d
       0.015872316 -0.024522707 -0.05673337 0.068599194
000140 6f 56 6d 3c a9 36 43 bd ed c3 7b 3d d8 a0 f1 3c
       0.014485939 -0.04765955 0.061466146 0.029495642
000150 c5 29 b7 bc 28 f1 25 bd b4 d2 31 bd 1e 47 9a 3c
       -0.022358784 -0.040513188 -0.043413833 0.01883274
000160 dc e2 e9 3b ee 93 18 bd 0a 5d c2 3c 5a 93 23 bd
       0.0071376394 -0.03725045 0.023726005 -0.039935447
000170 63 3a 1c bd 92 7b 71 3c ec 7b 87 3d 7e 98 41 3d
       -0.03814162 0.014738934 0.06615433 0.04726457
000180 b4 55 42 3d 88 e7 19 bc 62 9f 7a 3c 24 0f 8e 3d
       0.047445014 -0.00939358 0.015296789 0.069364816
000190 b4 8c 47 3d a2 f2 37 3d 9f 7b c1 bc f5 a6 1e bd
       0.04871817 0.044909127 -0.023618517 -0.03873344
0001a0 ab 57 81 bc aa 3d 22 3c 83 7b f0 bc 5f 60 b1 bc
       -0.015788874 0.009902397 -0.02935577 -0.021652399
0001b0 b1 e9 f7 3c ff e1 1c bd 33 c9 d7 3c 8a c5 9b bd
       0.0302628 -0.038301464 0.026341056 -0.07606037
0001c0 e8 82 95 bc f1 f0 1e bc b9 f8 0f 3d f4 c9 0d 3c
       -0.018250898 -0.009701 0.03514931 0.008654106
0001d0 ad 3b 1e 3d 4b 41 5b 3d d6 86 7f 3c bf ac 08 3d
       0.03863113 0.053529065 0.015596112 0.03336787
0001e0 d1 58 1a bc c8 a4 0c 3c e1 c9 7e bb 6a 1a a5 bc
       -0.00942059 0.008584209 -0.0038877653 -0.020154197
0001f0 07 dd 85 bd 15 14 8f bd 49 b5 fd 3a 90 fe 0d bd
       -0.06536298 -0.06986252 0.0019356395 -0.034666598
000200 08 12 6e 3c 0a 77 87 3d 4d ce 47 bc 87 b1 4b bc
       0.014530666 0.06614502 -0.012195182 -0.012432463
000210 ce 08 07 bd 3c 46 47 3d 40 e4 13 bc f9 3c f6 bc
       -0.03296738 0.048650965 -0.009026587 -0.03005837
000220 e8 65 bd 3c 99 f6 52 3d 78 5e 2c bd 6c 8c 7d 3c
       0.023119882 0.051504705 -0.04208228 0.015475374
000230 d1 f7 82 bc 90 5a 81 3c 9a 72 d3 bc 8e 93 46 3c
       -0.015987309 0.015790254 -0.025811482 0.012120141
000240 70 f1 88 bd b3 19 ce 3c b0 75 82 3b 6f c5 15 3c
       -0.066866755 0.025158739 0.0039813146 0.00914131
000250 62 ef 38 3c d8 77 16 bd c9 bb 2c 3d 12 b6 1b 3d
       0.011287542 -0.036735386 0.042171273 0.038015433
000260 29 d9 a7 3c a8 ff 02 bc de bd 91 3d 16 a6 6e 3c
       0.020489292 -0.0079955235 0.071162924 0.014565965
000270 0a 35 b4 bc 35 5d ae bc c6 b3 ef 3c 6f 60 d7 bc
       -0.021997947 -0.021284679 0.029260527 -0.0262911
000280 8a c4 48 bd 4a 4c c9 bc b3 5d 52 39 53 62 79 bc
       -0.04901556 -0.02457251 0.00020062066 -0.015221196
000290 9e 58 27 bd 56 0f 87 3c 13 f9 0d bd 4a 09 8d 3c
       -0.040855996 0.016486805 -0.034661364 0.017216343
0002a0 da 3e fb 3c 13 2c 30 3b b1 39 53 bc 08 cc 87 3d
       0.030669618 0.002688174 -0.012892173 0.06630713
0002b0 67 e5 0e bc 93 01 67 3d 73 44 4c 3d 7c 20 3b 3d
       -0.008721686 0.056397986 0.049869966 0.045685276
0002c0 04 5d 25 3d f9 ce 92 bc 33 f4 68 3b f4 23 9b bc
       0.04037191 -0.017920958 0.0035545945 -0.018938042
0002d0 90 11 fb bc 1f 89 a1 bc b8 f2 81 bc f8 23 e0 bc
       -0.030648023 -0.019718705 -0.015862808 -0.027360901
0002e0 fe b1 28 bd 3d c0 80 3d a9 29 6a 3c 56 ce a4 bc
       -0.04118537 0.062866665 0.014292159 -0.02011792
0002f0 9d b9 81 3d c0 fb 88 bc 9f d7 47 bd 07 c7 9f 3c
       0.06334231 -0.016721606 -0.048789617 0.019504083
000300 a6 3d f6 3c 00 eb 0d 3d 3f 9f c5 bb 46 10 81 3b
       0.030058693 0.03464794 -0.0060309465 0.0039387075
000310 19 dd 43 bd 68 39 b7 3b 27 0f 57 3c de be e0 3b
       -0.047818277 0.00559156 0.013126171 0.0068586906
000320 a4 65 a0 3c 56 73 09 3d b4 8b 17 bd 57 80 64 3d
       0.019579716 0.03355726 -0.036998466 0.055786457
000330 d7 f7 6c bb 1b 0b a1 ba 12 b1 07 3c 6d f9 d5 3c
       -0.0036158466 -0.0012286635 0.008281963 0.026119912
000340 bf 1c 60 3d 2d c3 3e 3b ee 31 79 3c 25 7d 49 3d
       0.054714914 0.0029108033 0.015209658 0.049191613
000350 aa a6 89 bc 05 4b 75 bd ff 37 15 3d f6 d4 cc 3c
       -0.016803104 -0.059885997 0.036430355 0.025003891
000360 ea 70 00 bd da f8 1f bd bf 53 b1 bb 28 1e 08 bd
       -0.031357683 -0.039055683 -0.0054115946 -0.033231884
000370 2f 6d 26 bd 6b 3e 83 3c 8c b3 c1 bc bf 4e d2 bb
       -0.04063147 0.016020974 -0.023645185 -0.0064180787
000380 45 24 86 bd dd 10 14 bd 28 9a 81 3d 92 6e 72 3d
       -0.065498866 -0.036148895 0.06328231 0.05918748
000390 17 6c 06 bc e0 96 ea 3c 99 89 91 3c 65 0a 71 3d
       -0.008204482 0.028636396 0.017765807 0.058847804
0003a0 5f e3 1b bd d5 5e b2 3c 94 d8 79 bb 69 98 f7 bc
       -0.038058635 0.021773735 -0.0038123475 -0.030224042
0003b0 f4 0c 6f 3b 19 26 3a 3d f0 55 d1 3c 80 ed 0c bc
       0.0036476227 0.04544649 0.025553674 -0.008601546
0003c0 fa 18 9b 39 77 f5 95 bb 3d 1d 83 3d b1 05 dc 3c
       0.00029582513 -0.004576381 0.06402061 0.026858183
0003d0 18 e9 41 bd 85 f0 1d bd c4 fe 28 bd 46 5a 6f bc
       -0.047341436 -0.038559455 -0.04125859 -0.014608925
0003e0 57 f3 5a 3b 42 d5 3a bd f9 c1 2e 3d de 54 03 3c
       0.0033409202 -0.045613535 0.042665455 0.008015839
0003f0 e9 bf 20 bb 73 99 21 bd d4 b9 5e bd b2 77 3a 3c
       -0.002452845 -0.03945298 -0.05437644 0.011381077

net.0.bias f4 [256]
000000 e8 6f a9 3c 5d 17 52 bc a6 7b 49 3d 22 6c 19 3d
       0.020683244 -0.012822953 0.049190186 0.03745664
000010 a0 64 94 bb 72 bd 01 bd 02 ed b4 3c b2 5e ee bc
       -0.004528597 -0.03167481 0.02208567 -0.029097889
000020 2b e5 71 3d 04 34 39 3d 30 d2 83 3c de 7d f6 3c
       0.059056442 0.04521562 0.016091436 0.030089315
000030 52 d1 fc bc b0 7b 6f 3c 45 bb 0c 3d fc 9d 18 bd
       -0.03086153 0.014616892 0.03435828 -0.03726004
000040 42 3a 8b bc 10 ee 95 3a 22 a0 68 3c 43 18 18 3c
       -0.016995553 0.0011438746 0.014198335 0.009283128
000050 d7 30 a5 bc 88 17 1e bd 7f ca 4d bc 83 ab db 3b
       -0.02016489 -0.03859666 -0.012560486 0.0067037954
000060 8e ff 86 bb a6 66 02 3d c4 10 4c 3d f4 1c ab bc
       -0.00411982 0.031836174 0.049820676 -0.02088783
000070 33 f3 74 bc dd 6c ab 3a 32 de 23 bd cd 17 20 3d
       -0.014950561 0.0013078708 -0.040006824 0.0390852
000080 ac 9c c9 bc a3 56 3c 3d d1 9d fe bc ba d9 20 bd
       -0.02461084 0.04598106 -0.031081112 -0.03927014
000090 8a 20 e7 3c 84 4d 62 bd f1 8d 0d 3c e9 a3 fd bc
       0.028213758 -0.055249706 0.0086397985 -0.030961948
0000a0 73 af 81 3d cf f4 42 bd ac b3 38 bd 35 6a 32 bd
       0.063322924 -0.04759675 -0.045093223 -0.04355832
0000b0 70 68 d9 3c 60 0f 26 3c 1f 3a 4f 3d 2e 6a 36 3d
       0.026539057 0.010135502 0.050592538 0.044534855
0000c0 8a a4 5d 3d 60 a6 63 3d 0b 21 0f 3c b0 27 31 3d
       0.054111995 0.05557859 0.008735905 0.04325074
0000d0 18 cc 9e bc ba bc c6 3b e4 31 c9 3c 2a 0e 4a bc
       -0.019384429 0.0060649784 0.024559923 -0.012332479
0000e0 13 a3 8e ba 84 fc 06 bd 29 6c 85 3d 14 48 1e bd
       -0.001088234 -0.03295566 0.065147705 -0.038642958
0000f0 82 22 2b 3d 99 de 10 bd 59 d4 51 bc 9b ea c7 bc
       0.041780956 -0.035368536 -0.012806975 -0.02440386
000100 1c 04 79 3d b3 81 23 3d 1d 91 4f 3d 7b 5d 82 bb
       0.060794935 0.039918613 0.0506755 -0.003978429
000110 16 21 ec bc 30 d1 73 3b df 23 0f 3d 62 e7 89 3c
       -0.02882437 0.0037203543 0.03494632 0.016833965
000120 13 8d b8 bc 7f 8d 51 bd be 1f b6 3c 76 2f b3 bb
       -0.022528207 -0.05116033 0.022231933 -0.0054683043
000130 56 93 c8 3c e7 3e 04 3d cb d6 1c bd 18 f8 7f 3d
       0.024484318 0.03228655 -0.03829078 0.06249246
000140 74 72 de 3c 58 53 7b bc 5a 8f 7c 3d 5a 11 4b 3d
       0.027154185 -0.015339695 0.06166015 0.049577095
000150 2e 1c 01 bc 9c 1e 4d bd 72 14 2a bd 1c 9e bb bc
       -0.007880254 -0.05007802 -0.041523404 -0.02290254
000160 5c 66 bf 3c 89 02 3d bc 43 5a d8 3c da f9 86 3c
       0.023364238 -0.011536249 0.026410228 0.01647656
000170 bf c4 40 3d 64 73 6c 3d 9b f4 19 bd 2c 34 79 3d
       0.04706263 0.057727233 -0.03758679 0.06084077
000180 fb fb 76 3d 5c fb 49 bc 06 86 85 3d 92 bd 93 3d
       0.0602989 -0.012327995 0.065197036 0.07213892
000190 6a a7 01 bd a9 24 12 bd 3f 72 bf 3c 5e bf 7d 3c
       -0.0316538 -0.035679493 0.023369906 0.01548752
0001a0 09 0f 26 bd d6 28 43 bd e4 67 83 3c 8b a1 28 bc
       -0.040541682 -0.047646366 0.01604075 -0.010292421
0001b0 58 9e 4e 3d d6 65 c2 3b ea 62 17 3b 18 5f a4 3c
       0.050443977 0.00593255 0.002309973 0.020064875
0001c0 0e b0 97 3c b4 c4 15 3d 5f a4 8f 3d 4a e3 2c bd
       0.018516567 0.036564544 0.07013773 -0.042208947
0001d0 0a eb 29 3d ce c6 2f bd 36 4f dd 3c 92 9a 3c 3d
       0.041483916 -0.042914204 0.02701531 0.046045847
0001e0 89 ee 50 bc 2f 69 dc bb 3f d9 5e 3c c4 63 3d 3d
       -0.012752184 -0.006726406 0.0136016 0.046237722
0001f0 62 28 18 3d f1 5a 2a ba 66 6f 81 bc 8c bc 9d 3c
       0.037147887 -0.00064985367 -0.01580019 0.019254945
000200 5c 95 d8 bc 8b 87 c6 3b 7e 9d 57 bd 7d 03 ee 3c
       -0.026438408 0.0060586384 -0.05264043 0.029054398
000210 3f f2 d0 3c b3 da 15 bd 3b 0f 57 bc db aa 11 bd
       0.025506137 -0.03658552 -0.01312619 -0.03556333
000220 32 db 5a bd 11 f1 5a 3d 1a aa 52 3d 30 a2 1c 3c
       -0.053431697 0.053452555 0.051431753 0.009560153
000230 a3 e0 6b 3d 18 fd 1d 3d 23 3c b3 3c 93 29 38 bc
       0.057587277 0.038571447 0.021879261 -0.011240381
000240 03 57 fe bc e5 63 55 3d 4f a8 41 3d 93 25 4a 3a
       -0.03104735 0.05209722 0.047279652 0.00077112875
000250 27 80 ad bc 7b 88 86 bb 99 8e 85 3d c3 cc 44 3c
       -0.021179272 -0.004105625 0.06521339 0.01201171
000260 74 a2 8f 3d a4 8c 8a 3c 82 64 32 3c de 79 18 3d
       0.07013407 0.016912766 0.010888221 0.037225597
000270 39 cd 93 bc 6d 9c 79 3c 54 67 20 bb d3 54 90 3d
       -0.018042194 0.015235049 -0.002447565 0.07047429
000280 74 25 78 3d 3e b1 8c 3d 6c 3e 82 3d b2 b0 20 3d
       0.060582593 0.06869744 0.06359562 0.03923101
000290 02 20 63 3c 3b 83 15 3d d0 a6 67 bd c7 69 26 3d
       0.013862612 0.036502104 -0.05655557 0.04062822
0002a0 da 58 5c 3d ff c1 7e 3c 59 14 2a 3b 28 17 04 3d
       0.053795673 0.015549182 0.002595207 0.032248646
0002b0 d0 94 35 bd e5 16 12 bd f9 74 98 3c 06 b4 1f bd
       -0.04433137 -0.035666365 0.018610464 -0.038990043
0002c0 59 1d 96 3c 8f 33 11 3b aa 45 2a 3d b2 3c 3b 3d
       0.01832454 0.0022155975 0.041570343 0.04571218
0002d0 ce d5 3c 3d c8 17 f8 3c 76 19 49 bc be 6c c0 bc
       0.046102338 0.030284777 -0.012274137 -0.023489352
0002e0 d9 f8 8b 3d c3 51 6f 3d 3a 3f 20 3c 0d 83 4c bd
       0.06834573 0.058427583 0.009780699 -0.049929667
0002f0 3b ce 6d 3b 1f cc 2f 3d a2 80 91 3c c9 a5 a6 3c
       0.0036286253 0.042919274 0.017761532 0.020342724
000300 e9 80 6d 3d 87 2e 2a 3d 9a ed ca 3c be 1d f2 3b
       0.057984266 0.04154828 0.0247715 0.0073887995
000310 2a 6a f5 bc 3c cb 46 3c 32 7f 73 3d ce 60 ff 3b
       -0.02995785 0.012133416 0.059447475 0.0077935224
000320 44 67 08 3d 0e 2f 5f bd 03 95 8b 3d 09 1c 56 3d
       0.033301607 -0.054488234 0.06815531 0.05227283
000330 eb fd e9 3c 48 bc 15 3d 52 ac 11 bd c3 48 f5 bb
       0.02856346 0.036556512 -0.035564728 -0.0074854805
000340 39 35 a2 3b fe 39 4a 3d 5c 90 1c ba 84 3f 17 3c
       0.0049501923 0.049371712 -0.0005972439 0.009231452
000350 f9 33 54 bb 45 ce 2a bc 81 a6 83 3d 8b 14 67 bb
       -0.003237961 -0.010425155 0.064282425 -0.0035260047
000360 91 5e 3c 3d 31 4d 06 3d d6 ad 8f 3b 8c 96 3d bd
       0.045988623 0.03278846 0.0043847365 -0.04628615
000370 6a cd 3b 3c c1 b2 21 3d 7c 9d 64 ba c6 ba e0 bc
       0.011462549 0.039477114 -0.0008720977 -0.02743281
000380 5e 38 b4 3c d9 1c 09 3d 13 47 dc bb 6d dc d9 bc
       0.021999534 0.033474777 -0.00672234 -0.026594365
000390 2f 21 69 bc e5 3a 1f 3d 10 66 34 bd 10 16 42 3d
       -0.014229103 0.038874526 -0.044042647 0.04738432
0003a0 0b 59 8c bc 65 47 a8 bc 7a 19 4e 3d 47 60 15 bd
       -0.017132303 -0.020541856 0.050317265 -0.03646877
0003b0 de 38 70 3d a1 b7 34 bd 74 9a 3f 3d ce 00 ad 3c
       0.058647983 -0.044120435 0.046778157 0.021118548
0003c0 41 1d 9b bc d0 0d 80 3d 66 b8 e5 bc 65 03 90 3a
       -0.018934848 0.062526345 -0.02804203 0.001098734
0003d0 c5 a8 b7 3c 72 e8 81 bb 9a de 22 3c 57 4c 53 bd
       0.022419343 -0.003964477 0.009940768 -0.051586475
0003e0 9a f3 e5 3c 63 ca a9 bc 7c 8b 36 3c 4b ab 32 bd
       0.02807026 -0.020726388 0.011141654 -0.04362039
0003f0 fb ad 48 3d cc b2 19 bd 77 a6 8b 3c 4d ca 97 3b
       0.048994046 -0.03752403 0.01704715 0.0046322704

net.2.weight f4 [256, 256]
000000 e3 32 2c bd 9b 3e ab 3c 5a 95 15 3d bd 46 0d bd
       -0.042040717 0.020903876 0.036519386 -0.03449129
000010 f7 e4 58 3d bf 4c 16 bd 3f a8 08 3c fc 47 35 37
       0.052952733 -0.036694285 0.008340894 1.0805201e-05
000020 95 49 10 bd 43 1e 9f bd 31 91 e3 ba 65 30 5d 3d
       -0.035226423 -0.07769444 -0.0017361996 0.05400123
000030 12 03 90 3d 24 72 7b 3d 86 51 33 bd 76 d3 f7 3c
       0.070318356 0.06138815 -0.04377892 0.0302522
000040 9f 65 96 bd fd b5 1d 3c 7c 11 7d bb c3 b7 0a 3d
       -0.073436014 0.009625909 -0.0038615158 0.033866655
000050 9d 7c b9 bc bd 75 cb bc eb 83 1c bd c6 9c 64 bd
       -0.022642428 -0.024836415 -0.038211744 -0.055813573
000060 15 56 57 3b 3f 80 e2 3a 40 96 61 38 dc 88 8a bd
       0.0032857705 0.0017280652 5.378411e-05 -0.06764385
000070 7c b1 0b 3d e9 53 04 3b 52 db 18 bc 1f a9 a5 3d
       0.03410481 0.0020191616 -0.009329634 0.08088898
000080 c2 b7 d6 bc 6e ac bd 3c 4c f7 83 bc d2 82 0c bd
       -0.02621067 0.02315351 -0.016109131 -0.034304447
000090 46 6f 8e 3d 57 24 d8 bb 9f 92 f2 bc 6a f7 6a 3d
       0.069548175 -0.006596129 -0.02961093 0.05736486
0000a0 07 b5 31 3d 01 08 0b 3d 65 41 bd b9 ea 92 2b bd
       0.04338553 0.03394318 -0.00036097612 -0.041888155
0000b0 c6 e8 4d 3d de d0 1d bb 9a 32 97 3c eb 93 52 3c
       0.05027082 -0.0024080793 0.018456746 0.012852649
0000c0 19 ee 82 3d 0c 73 d9 3c aa e7 4f bd 8b ed fc ba
       0.0639307 0.026544116 -0.05075804 -0.0019296868
0000d0 8c f0 1b bd 38 7f 84 bc 06 aa bd 3c 37 29 73 bd
       -0.0380712 -0.016173944 0.023152363 -0.059365477
0000e0 d8 36 6d bc a2 4a 59 bc bd 11 96 bc 19 81 93 3d
       -0.014478408 -0.013262423 -0.018319005 0.07202358
0000f0 f3 f3 fe bc 3d 2b b4 bc ae ac be bc a2 77 aa bc
       -0.031122183 -0.021993274 -0.0232757 -0.020808998
000100 ec 2b 9a bc fb 67 f1 ba 09 56 73 3d 1b f8 5f bd
       -0.018819772 -0.0018417829 0.05940822 -0.05467997
000110 a4 a8 7b 3d 10 24 3c bd 3a 16 97 3d 03 e8 38 3d
       0.061440125 -0.04593283 0.07377286 0.04514314
000120 d2 17 86 bc 84 cf 33 3c 0d b7 06 bc 8a 8c f3 bb
       -0.01636878 0.010974769 -0.008222354 -0.007432525
000130 dc 49 de bc ef c6 ee bc 7e 94 80 3d 69 ed 57 3d
       -0.027134828 -0.029147593 0.06278323 0.052716646
000140 0e a5 fe bc 64 c2 97 3d 96 03 44 bd b5 64 db 3c
       -0.031084564 0.07410124 -0.047854982 0.02678142
000150 82 51 42 3d 45 af 46 bc cf 00 69 3d 6f aa 6d 3d
       0.047441013 -0.012126748 0.056885537 0.058023866
000160 b0 eb 5d bd f7 5b fe 3a e6 1f e6 bc a7 96 09 bd
       -0.054179847 0.001940607 -0.028091382 -0.03359094
000170 c6 d0 6a bd 8d 57 7c 3d 65 75 2b bc c1 54 74 bd
       -0.057328008 0.061606932 -0.010465001 -0.05965114
000180 b4 f5 23 3d b0 a3 1d 3d 7b 6d 1c 3d ed 67 16 3d
       0.040029243 0.038486183 0.038190346 0.036720205
000190 0c 10 90 3d c5 a8 36 3d 93 98 a7 bc 49 ae c0 bc
       0.07034311 0.044594545 -0.020458495 -0.023520606
0001a0 9b 5d ce bc bc c6 09 bd fa fa 28 bd 6b 5e 77 3d
       -0.025191119 -0.033636793 -0.041254975 0.06039278
0001b0 4c d2 36 bd 7b 4f 73 bc b0 24 df 3c 99 53 61 3d
       -0.04463415 -0.014850493 0.027239174 0.055011366
0001c0 71 a6 7b 3d dc bc 2a 3c 5c fd 15 3c d9 cb 83 bc
       0.061438028 0.010421004 0.009154644 -0.016088413
0001d0 8b 73 8b 3d 2f 28 53 3c 64 d7 d0 bc 3d 54 b8 3c
       0.068091474 0.0128879985 -0.025493331 0.022501105
0001e0 dd dc ad bc c9 9f b9 bc 84 3a 30 3d 7e 0f 32 bd
       -0.02122348 -0.0226592 0.043024555 -0.043471806
0001f0 00 54 ea 3c bb bd 50 3d 72 ca ee 3c 50 e6 ad bd
       0.028604507 0.05096219 0.029149268 -0.08491194
000200 89 6d 87 3d e4 82 f5 bc 84 3f 27 bd dc 9d 43 3d
       0.06612689 -0.02996964 -0.040832058 0.04775797
000210 72 2a 39 ba 9f 2d e6 bc 90 e2 b4 bc 15 6b 62 3d
       -0.0007063515 -0.028097926 -0.02208069 0.055277903
000220 2d 57 54 3d 8f 94 10 bd d7 62 4d bd 7e b0 0f 3d
       0.05184095 -0.035297927 -0.05014309 0.035080425
000230 7e ca 2f bd ea 1f 88 3c 8e e5 2e bd ab 2e b3 bc
       -0.04291772 0.01661678 -0.04269939 -0.021872839
000240 82 be 50 3b ba 67 90 bc 0f 6e 34 bd 7b 06 6e 3a
       0.0031851833 -0.017627586 -0.044050273 0.0009079945
000250 56 c4 ac 3b 42 a4 30 bd 0d 75 0f bd 74 97 90 bc
       0.0052724285 -0.0431254 -0.035023738 -0.017650343
000260 26 cb 16 3d d7 d0 6b bd 64 1f c8 bc b0 af de 3c
       0.03681483 -0.057572212 -0.02442903 0.027183384
000270 10 1b 08 3d 32 fa 5a bb cb cd d6 3c 55 6e a8 3c
       0.033228934 -0.0033413288 0.026221177 0.020560423
000280 aa bf cd bc dc 44 57 bc e5 c0 20 3d a3 90 21 3a
       -0.025115807 -0.013138976 0.03924646 0.0006163215
000290 b1 5e 46 3d ae 1f d4 bc 3e 44 11 bd 6c c8 38 3d
       0.04843015 -0.025894012 -0.03546547 0.045113012
0002a0 1b 1e c8 3c 84 e9 3a 3d b5 8e 88 3c e8 19 14 3d
       0.024428418 0.045632854 0.01666961 0.03615752
0002b0 c5 1a 5f 3d ea 4e 7d 3c 1c 16 86 bd 79 0c 49 3d
       0.05446889 0.015460709 -0.06547186 0.04908416
0002c0 81 27 09 bd 69 ee 83 bd b4 c1 c9 bc 37 93 3f 3d
       -0.03348494 -0.064419575 -0.024628498 0.046771254
0002d0 14 76 b1 bb 32 dc 81 bd 87 7d b5 bc 89 93 51 3d
       -0.0054156873 -0.06340827 -0.022154583 0.05116609
0002e0 7a e5 05 3b 4b 1f 15 bd 2a 7f 8c bc 4a de 1d bc
       0.0020430968 -0.036406796 -0.01715048 -0.009635517
0002f0 33 06 72 3d e7 76 46 bd 86 e4 5a 3d 7d 0b 8e bb
       0.059087943 -0.048453238 0.053440593 -0.0043348656
000300 58 8f 79 bd c1 bd c9 3b f3 12 c7 3c 8b 88 d1 3c
       -0.06092772 0.0061566536 0.024301028 0.025577804
000310 49 12 99 3c 5f b3 0c bc e4 39 30 3c 86 31 51 bd
       0.018685477 -0.008587687 0.01075599 -0.05107262
000320 63 3a ec 39 10 60 95 3c f3 a3 f1 3c fe d7 2a bc
       0.0004505693 0.018234283 0.029497122 -0.010427473
000330 9b dd 2f 3d 93 97 82 bd 6d 29 1e bd 9a 70 f8 bc
       0.04293595 -0.06376567 -0.038613725 -0.03032713
000340 52 8e b0 3c 84 4e 85 bd 24 72 3b bc 3a 8c 06 3d
       0.021552239 -0.06509116 -0.011440787 0.032848574
000350 2a 9a 33 3d 3b e0 c2 3c 29 78 d5 3c ae 4e 73 3c
       0.043848194 0.023788562 0.026058273 0.014850302
000360 70 c9 3f 3b 81 fb 86 bd 1f 4c 6d bc 32 91 d7 bb
       0.0029264353 -0.06590939 -0.014483481 -0.006578588
000370 70 14 31 bc 3c 5d 28 bd af 39 42 bc 43 f8 f3 3c
       -0.010808095 -0.04110454 -0.011854573 0.029781466
000380 c9 af 11 bc 11 21 01 bd 40 44 f0 bc 4f f5 83 3c
       -0.008892008 -0.031525675 -0.02932942 0.016108183
000390 f2 ad 36 3d 6f 1a 59 3d e1 26 11 bd b4 fa 7f 3d
       0.04459948 0.053003725 -0.03543747 0.06249495
0003a0 01 30 6a bc 21 55 6d bb 10 db 36 3b c2 cb f2 bc
       -0.014293672 -0.003621407 0.0027901568 -0.029638175
0003b0 99 88 08 3a 9e 54 6e bd 71 89 5f 3d de ce b6 3d
       0.0005208343 -0.058186166 0.054574434 0.089261755
0003c0 b5 d2 3b bd d9 74 3e 3d 6c f6 6a 3d 73 fa 47 3d
       -0.045855243 0.046498153 0.057363912 0.04882283
0003d0 c6 f1 23 3d f5 ac 53 bd 91 a9 05 bd 19 62 ad 3c
       0.040025495 -0.051678617 -0.032632414 0.02116494
0003e0 5c 3d ea 3b 25 5b 07 bc 1b b9 9d bc 9b 4d 7a 3d
       0.007148428 -0.008261477 -0.019253304 0.061109167
0003f0 76 26 09 3d a5 e0 94 3d a7 6d fb bc 6b fc 5f 3c
       0.033483945 0.0726941 -0.030691935 0.013671021
