datasets/oc_ml_best.pt (torch, 43494 bytes, 6 tensors)

mlp.0.weight f4 [128, 13]
-0.21188976 -0.25793675 0.2244906 0.2064964 0.24563485 0.10823399 -0.24520771 -0.22004549
0.095286444 0.12891537 -0.22875494 0.1462694 -0.03693611 0.031071572 -0.15255925 -0.10485263
0.2393034 0.21938235 -0.21936846 0.0016172143 0.21456221 -0.27170947 -0.213306 -0.07740927
-0.17269361 0.04148462 -0.14765583 0.026814325 -0.20940007 -0.23819847 0.14134768 -0.31713492
0.24784471 0.15600865 -0.08783549 -0.07379063 -0.11672459 -0.20964965 -0.2377089 -0.03803619
0.20077221 -0.26957056 -0.012709448 0.0027098532 -0.14416815 -0.1415415 0.18677478 -0.058705416
0.0073291236 0.02908495 0.23978525 -0.20572473 0.026012115 0.15817131 -0.08657846 0.15053178
0.047663637 0.32708836 0.21170539 -0.16438694 0.2403342 0.0757427 0.08463924 -0.2224055
-0.14549407 -0.167757 0.09399827 0.09231735 0.20006119 -0.19122106 0.25109777 0.20839123
0.13539676 -0.17143871 -0.12093824 0.01371237 -0.26485527 0.12933011 -0.26806602 0.25870767
-0.17587383 0.071739525 0.2329124 0.008128659 -0.10652756 0.18221676 0.25055435 0.228103
0.030219397 0.2816888 0.14819 0.031873938 0.10454786 0.10432859 -0.26194224 -0.24689692
0.14852792 0.22504443 0.19575973 -0.14259593 0.15041563 0.061122745 0.00862611 0.0604257
-0.009323366 0.13874146 -0.18187772 -0.10512056 0.0041483566 -0.22416368 0.27046284 0.2601414
0.07044569 0.25116643 0.1819926 0.09104219 0.19867378 -0.043427225 -0.1493986 0.18231927
0.08117906 -0.008287208 -0.102512725 -0.17443724 0.25817814 0.2274814 0.132667 -0.2316512
0.008394533 0.1318769 -0.28027132 0.0627884 -0.06428441 -0.008480828 -0.19935848 -0.32538772
0.036905866 0.22170475 0.18618809 -0.047106527 -0.1825265 -0.032686267 -0.20588343 -0.10581039
-0.205453 0.013999925 0.21825276 -0.3062229 -0.2991208 -0.24860469 0.19206135 0.07970983
-0.17479885 -0.012169706 0.19512905 0.27775538 0.11430435 0.12805709 0.21585183 0.2594921
-0.1736165 -0.09871581 0.10792988 -0.14846429 -0.06539562 0.030009972 -0.09207778 0.186818
-0.18815795 -0.20738599 -0.12687452 -0.21551599 -0.0340401 -0.23718134 0.20748362 -0.15195315
0.02020264 -0.23260476 0.0428271 -0.021312842 0.11405862 0.03167097 -0.29081038 -0.027335303
-0.19545847 -0.065050334 -0.04841993 0.066735335 0.18249193 0.15531446 0.22596271 0.25516135
-0.16958219 0.18609762 0.043233372 -0.01614879 0.2819508 0.04181145 -0.22482158 -0.19890352
0.2203224 -0.18665217 0.13078298 -0.093663596 -0.117053874 -0.18166381 0.00750537 0.07914554
-0.18317838 0.24846113 0.21100819 0.24827111 0.096322045 0.2093276 0.19349672 -0.06830569
-0.13114919 -0.117161274 0.07898969 0.12767394 0.1621536 0.1953471 -0.26061884 -0.013286984
0.13826154 0.012590547 -0.0135068195 -0.28724796 0.059399776 -0.010240522 0.15446384 0.2323439
0.19201463 0.09121239 0.23299651 0.1380154 -0.1561439 0.25692865 0.20256178 0.10936633
-0.14085971 -0.0065216105 -0.1931285 0.256069 0.04450856 0.021759959 -0.26644683 0.17052794
0.2563354 0.0896883 0.20900641 -0.10588564 0.12686759 0.020810548 0.09794712 -0.14831452
00000000: a1f9 58be 4910 84be dde0 653e cb73 533e
00000010: b487 7b3e c8a9 dd3d bb17 7bbe 9b53 61be
00000020: 8a25 c33d 6402 043e bc3e 6abe a5c7 153e
00000030: 524a 17bd cf89 fe3c 7e38 1cbe fabc d6bd
00000040: f30b 753e c4a5 603e 20a2 60be b5f8 d33a
00000050: 32b6 5b3e 811d 8bbe e36c 5abe c088 9ebd
00000060: 98d6 30be c7eb 293d 1733 17be b7a9 db3c
00000070: f96c 56be 4dea 73be 72bd 103e 825f a2be
00000080: 01cb 7d3e bbc0 1f3e 18e3 b3bd 8b1f 97bd
00000090: 4d0d efbd 66ae 56be f669 73be d6cb 1bbd
000000a0: 3b97 4d3e 2705 8abe 4a3b 50bc cb97 313b
000000b0: d1a0 13be 41f0 10be e341 3f3e 1775 70bd
000000c0: 2529 f03b 9043 ee3c 448a 753e 81a9 52be
000000d0: 5c17 d53c a9f7 213e 0c50 b1bd 0125 1a3e
000000e0: f23a 433d 2078 a73e 4cc9 583e 0d55 28be
000000f0: 2b1a 763e fd1e 9b3d 5657 ad3d 44be 63be
00000100: 66fc 14be 7ec8 2bbe 2a82 c03d e110 bd3d
00000110: d7dc 4c3e 74cf 43be e38f 803e 8364 553e
00000120: 73a5 0a3e a18d 2fbe 78ae f7bd d9a9 603c
00000130: 1c9b 87be 1d6f 043e f33f 89be 5575 843e
00000140: 4518 34be 2cec 923d 9780 6e3e 112e 053c
00000150: 1f2b dabd 0897 3a3e a948 803e d593 693e
00000160: ab8e f73c 8439 903e 1fbf 173e 3f8e 023d
00000170: 301d d63d 3aaa d53d 4b1d 86be 8cd2 7cbe
00000180: b417 183e 0c72 663e 3d75 483e ab04 12be
00000190: 8e06 1a3e d85b 7a3d 8754 0d3c f080 773d
000001a0: 08c1 18bc 3e12 0e3e 273e 3abe 7349 d7bd
000001b0: f0ee 873b 2a8b 65be 1b7a 8a3e 4131 853e
000001c0: d445 903d e398 803e 455c 3a3e 5474 ba3d
000001d0: 2471 4b3e bfe0 31bd f2fb 18be e7b1 3a3e
000001e0: 3541 a63d 12c7 07bc 31f2 d1bd ad9f 32be
000001f0: ed2f 843e e2f0 683e dcd9 073e f935 6dbe
00000200: 3989 093c bd0a 073e b97f 8fbe 3497 803d
00000210: 8ba7 83bd 2cf3 0abc a124 4cbe 3899 a6be
00000220: 9b2a 173d 9206 633e 17a8 3e3e c6f2 40bd
00000230: 3ae8 3abe 09e2 05bd 1bd3 52be 1eb3 d8bd
00000240: 4562 52be f15f 653c a77d 5f3e 3fc9 9cbe
00000250: 5d26 99be 3a92 7ebe bbab 443e e83e a33d
00000260: 78fe 32be 7263 47bc e9cf 473e f435 8e3e
00000270: 6618 ea3d 6621 033e 4308 5d3e 26dc 843e
00000280: 86c8 31be 842b cabd 570a dd3d 0607 18be
00000290: 24ee 85bd 79d7 f53c 4693 bcbd 384d 3f3e
000002a0: 7aac 40be fe5c 54be 65eb 01be 39b0 5cbe
000002b0: a26d 0bbd aadf 72be 9676 543e 9b99 1bbe
000002c0: 0280 a53c f12f 6ebe 786b 2f3d 4598 aebc
000002d0: 9197 e93d 6bb9 013d 19e5 94be 49ee dfbc
000002e0: 4426 48be 1c39 85bd fa53 46bd 89ac 883d
000002f0: 2adf 3a3e c10a 1f3e c562 673e 82a4 823e
00000300: f4a6 2dbe 6090 3e3e 7a15 313d 784a 84bc
00000310: db5b 903e 7c42 2b3d a137 66be 5dad 4bbe
00000320: 329c 613e bf21 3fbe f9eb 053e b3d2 bfbd
00000330: f1b9 efbd 1406 3abe 9bef f53b 0f17 a23d
00000340: 1d93 3bbe 986c 7e3e 8812 583e c83a 7e3e
00000350: 7e44 c53d f959 563e 0124 463e dbe3 8bbd
00000360: f94b 06be 40f2 efbd 59c5 a13d f5bc 023e
00000370: 980b 263e 1209 483e d56f 85be a6b1 59bc
00000380: 6f94 0d3e 9548 4e3c b54b 5dbc 2a12 93be
00000390: 2e4d 733d ddc7 27bc c52b 1e3e 8feb 6d3e
000003a0: 7c9f 443e 90cd ba3d a396 6e3e e953 0d3e
000003b0: 30e4 1fbe 278c 833e 5b6c 4f3e 74fb df3d
000003c0: 873d 10be 3cb3 d5bb 7ac3 45be 7a1b 833e
000003d0: 9c4e 363d f141 b23c b86b 88be e09e 2e3e
000003e0: 653e 833e 80ae b73d c705 563e 92da d8bd
000003f0: 94e9 013e e27a aa3c 8098 c83d c3df 17be

mlp.0.bias f4 [128]
0.044422604 0.006421165 -0.15213601 0.26666293 -0.20111078 -0.20745654 0.09340781 -0.26192048
0.15922494 0.09868135 0.2173799 -0.00811325 -0.2302387 0.13897924 -0.18006878 -0.13811904
0.055653516 -0.17306402 0.048992917 -0.14551432 0.1405543 -0.10306613 -0.1802688 -0.15678205
0.17178366 -0.081760824 0.024119562 -0.09385527 0.10611812 -0.0416806 0.23877063 -0.19117251
-0.12339974 -0.09270596 0.1579955 -0.02858883 -0.025374178 0.27495724 0.097292125 -0.19041297
0.14245261 -0.028033294 -0.19802389 0.03668026 -0.07638439 -0.24707255 -0.1763122 0.17020959
-0.13855454 0.2868432 -0.23649673 -0.17189644 -0.18515807 0.076669075 -0.020641759 -0.041872703
-0.2637318 -0.20336677 -0.2034206 0.13704309 -0.1420199 -0.25175625 -0.119297385 0.254385
-0.22115523 0.11388987 0.098211415 -0.15317696 -0.22764638 0.262662 0.20950402 -0.100464426
-0.06187621 -0.09462145 -0.078616515 0.24249542 -0.16496168 0.0985565 -0.14313714 -0.17114449
0.19230573 0.06213537 0.0202215 0.12080455 -0.2277166 0.14836888 0.26237157 0.19801679
-0.005569835 -0.21988575 -0.25152963 0.1774222 0.08139829 0.14273044 0.14484864 0.06268605
-0.05002517 -0.0037720774 -0.25022617 -0.25937226 0.07027981 0.1121459 0.25168407 0.098867066
-0.17167522 -0.070176706 -0.082750745 -0.25790852 -0.00013794843 -0.1433042 -0.1366702 -0.023708615
0.15347908 -0.08727904 -0.17786214 0.21703444 -0.2286588 -0.25756612 0.2362829 -0.21213792
-0.10185223 0.23481046 -0.23387018 0.2291476 0.20808187 -0.08857409 0.019187596 0.11612858
00000000: 7af4 353d a368 d23b 8bc9 1bbe 0b88 883e
00000010: fcef 4dbe 7d6f 54be 984c bf3d 711a 86be
00000020: dd0b 233e 7319 ca3d d698 5e3e 70ed 04bc
00000030: b2c3 6bbe 9350 0e3e f363 38be 146f 0dbe
00000040: f1f4 633d b237 31be ccac 483d b501 15be
00000050: 77ed 0f3e 5614 d3bd 6298 38be 798b 20be
00000060: 0ee8 2f3e 3872 a7bd 6396 c53c 3137 c0bd
00000070: 7554 d93d 47b9 2abd 4a80 743e bac2 43be
00000080: 01b9 fcbd 9fdc bdbd 93c9 213e 1f33 eabc
00000090: 82dd cfbc 32c7 8c3e 1841 c73d 9efb 42be
000000a0: 19df 113e 14a6 e5bc c6c6 4abe 0a3e 163d
000000b0: 6b6f 9cbd 9600 7dbe 2f8b 34be 6c4b 2e3e
000000c0: 3ee1 0dbe 1ddd 923e 332c 72be 9f05 30be
000000d0: 149a 3dbe ad04 9d3d e818 a9bc b682 2bbd
000000e0: db07 87be 613f 50be 7d4d 50be 0655 0c3e
000000f0: aa6d 11be 32e6 80be 3052 f4bd c03e 823e
00000100: 8476 62be 183f e93d 1123 c93d 6cda 1cbe
00000110: 221c 69be a27b 863e 3988 563e 4bc0 cdbd
00000120: e971 7dbd e4c8 c1bd b201 a1bd b850 783e
00000130: b7eb 28be fed7 c93d 8b92 12be 8040 2fbe
00000140: cbeb 443e a881 7e3d 8fa7 a53c 6068 f73d
00000150: 8a2e 69be 03ee 173e 9155 863e eac4 4a3e
00000160: 2a83 b6bb bb29 61be 7ec8 80be 2aae 353e
00000170: 26b4 a63d ee27 123e 3453 143e 8b61 803d
00000180: 31e7 4cbd f534 77bb a51d 80be 71cc 84be
00000190: dcee 8f3d c0ac e53d bcdc 803e d17a ca3d
000001a0: a1cb 2fbe ceb8 8fbd 3979 a9bd 960c 84be
000001b0: 40a6 10b9 56be 12be 46f3 0bbe 9238 c2bc
000001c0: 9f29 1d3e 5abf b2bd 7e21 36be 473e 5e3e
000001d0: 8825 6abe b5df 83be 25f4 713e af3a 59be
000001e0: e797 d0bd 2772 703e aa7b 6fbe aba5 6a3e
000001f0: 6a13 553e 5566 b5bd 4e2f 9d3c d2d4 ed3d

mlp.2.weight f4 [64, 128]
-0.09048531 0.01359884 -0.06542082 -0.065387204 0.0473353 -0.06594498 0.046955474 -0.10788809
0.07059262 -0.018021705 -0.12273768 0.033842534 -0.06891826 0.052976858 -0.040071413 0.023731314
-0.07480591 0.026024066 -0.06814757 -0.029805323 0.037088063 0.056171943 -0.04470832 0.027954081
-0.07211423 0.029497769 0.104055904 -0.08946263 0.10992688 -0.00467684 -0.10822629 -0.118433505
0.08106743 -0.08666254 -0.06003093 0.046875406 -0.04338294 -0.07227879 0.10462752 -0.0013788326
0.07703428 0.103101335 0.06588903 -0.053352915 -0.061643813 -0.08734306 -0.007756665 -0.066122524
-0.061960895 0.069680244 -0.0766469 0.018626865 -0.082386404 -0.014037198 -0.06056707 0.046958387
-0.07363354 -0.1395548 -0.004038699 -0.06110487 0.088367626 0.014098368 -0.047626663 -0.030570475
-0.10975281 0.09286302 -0.026232975 -0.02964878 0.019623598 0.09341354 0.009089312 0.02596631
-0.05203189 -0.065364994 0.07024187 -0.013439296 -0.010682901 -0.09828691 -0.08715636 0.027939077
-0.015337189 -0.04945798 -0.08375115 0.0143027175 -0.06343136 -0.05906046 0.037655342 6.0813295e-07
-0.026943527 -0.0161198 -0.007226032 0.059964042 -0.09949174 -0.09694971 -0.09475315 -0.059857726
0.0837887 0.034393255 -0.050788984 -0.052681945 -0.023739303 -0.085495524 0.03154592 -0.02551016
0.07688094 -0.06230735 -0.0786817 -0.066923335 -0.09963607 -0.1155951 0.07053334 -0.008836023
0.0359484 -0.046120517 -0.036482748 -0.041287277 0.029008823 -0.050601695 0.03572817 -0.05275147
0.0007531827 -0.0086341575 -0.022499293 -0.017374232 -0.026892502 -0.013695993 -0.061533503 0.05176666
-0.0067344806 -0.032906845 0.04434278 0.020929601 -0.06610188 0.042471834 -0.0061769756 0.07503918
-0.04608778 -0.050219715 -0.10879516 -0.08174757 -0.0819858 -0.023348032 -0.09936314 -0.04677478
-0.053063784 0.06595644 0.03003256 0.046815492 0.029713722 -0.04963175 -0.067376524 0.0019162872
-0.117329344 -0.009707017 0.011507073 -0.046626795 0.099835545 0.035118785 0.043883774 0.011145432
-0.04430758 -0.10340671 -0.02510624 0.013453429 -0.07433093 -0.04485501 0.09873636 -0.084560014
0.002700696 0.014532215 -0.08258414 -0.06914563 0.043840636 -0.070558675 0.089665 0.033883706
-0.063724354 0.030007638 0.010132833 0.046289846 -0.07617772 0.07191466 0.07175289 0.097132385
-0.10113552 0.021183824 -0.009682587 -0.003078669 -0.000623012 -0.00658623 -0.024822827 -0.07095278
-0.022941288 -0.048351716 -0.009049794 0.035082746 0.0012367138 0.014864235 -0.07942515 0.043978292
-0.07679938 -0.053122297 0.032146573 0.017595438 -0.08359565 -0.03922789 0.022644848 0.044435117
0.07826919 -0.026610667 -0.015518539 -0.05581588 0.0614881 -0.011368048 0.06749698 0.030611802
-0.034092475 -0.04709251 -0.050227854 -0.009140134 -0.0059913467 -0.10229922 0.037014436 0.03497379
0.031314276 -0.06588511 -0.017605392 0.0008493125 -0.005415491 -0.054241437 0.039795406 0.046998102
-0.020658828 0.08225711 -0.023064313 -0.0028775777 -0.11595481 -0.0664307 -0.025767671 -0.08888018
0.03528783 0.0009725407 -0.03356922 0.049093 -0.0057303547 -0.08315868 -0.09590881 0.02632955
-0.0033818523 0.053985957 -0.028110854 -0.08007854 0.04926782 0.04760261 0.059682418 0.02834564
00000000: 5d50 b9bd abcd 5e3c 5afb 85bd bae9 85bd
00000010: a9e2 413d 290e 87bd 6254 403d 6ef4 dcbd
00000020: dd92 903d 41a2 93bc e55d fbbd 789e 0a3d
00000030: 0425 8dbd 43fe 583d ec21 24bd 2c68 c23c
00000040: d733 99bd 6c30 d53c f490 8bbd 4b2a f4bc
00000050: a7e9 173d 8d14 663d 1220 37bd f5ff e43c
00000060: a0b0 93bd 4ea5 f13c 431b d53d 2f38 b7bd
00000070: 5821 e13d 2d40 99bb bfa5 ddbd 448d f2bd
00000080: ae06 a63d 217c b1bd fee2 75bd 6d00 403d
00000090: 4fb2 31bd e706 94bd f446 d63d f2b9 b4ba
000000a0: 26c4 9d3d cb26 d33d d4f0 863d 9688 5abd
000000b0: 397e 7cbd ebe0 b2bd 9f2b febb 3f6b 87bd
000000c0: b5ca 7dbd 84b4 8e3d 0df9 9cbd 5e97 983c
000000d0: 34ba a8bd 47fc 65bc 2d15 78bd 7057 403d
000000e0: 2ecd 96bd 74e7 0ebe 1057 84bb 1a49 7abd
000000f0: 16fa b43d d7fc 663c 2d14 43bd ef6e fabc
00000100: 15c6 e0bd f82e be3d 89e6 d6bc 00e2 f2bc
00000110: abc1 a03c 994f bf3d 56eb 143c 4db7 d43c
00000120: 641f 55bd 15de 85bd f8da 8f3d 7e30 5cbc
00000130: 5607 2fbc a64a c9bd 097f b2bd 7ee0 e43c
00000140: d548 7bbc 7394 4abd b985 abbd f255 6a3c
00000150: 4de8 81bd 62e9 71bd 7d3c 1a3d 943e 2335
00000160: acb8 dcbc ac0d 84bc 5ac8 ecbb db9c 753d
00000170: 53c2 cbbd 928d c6bd f10d c2bd 602d 75bd
00000180: 6999 ab3d f1df 0c3d 1c08 50bd 06c9 57bd
00000190: ed78 c2bc 4718 afbd 4b36 013d affa d0bc
000001a0: c173 9d3d fe35 7fbd df23 a1bd 1a0f 89bd
000001b0: ff0d ccbd 20bd ecbd c973 903d f7c4 10bc
000001c0: a13e 133d dee8 3cbd ef6e 15bd d91c 29bd
000001d0: e9a3 ed3c b943 4fbd b457 123d ed11 58bd
000001e0: 3c71 453a 4876 0dbc 7050 b8bc 6854 8ebc
000001f0: aa4d dcbc 2965 60bc 8e0a 7cbd 4709 543d
00000200: ebac dcbb 54c9 06bd c6a0 353d 8e74 ab3c
00000210: 6c60 87bd f2f6 2d3d 3a68 cabb 24ae 993d
00000220: 8ac6 3cbd 30b3 4dbd ffcf debd 456b a7bd
00000230: 2ce8 a7bd 5f44 bfbc e77e cbbd e996 3fbd
00000240: 6959 59bd 2c14 873d d806 f63c 9ac1 3f3d
00000250: 316a f33c a94a 4bbd b4fc 89bd ee2b fb3a
00000260: 5e4a f0bd 2e0a 1fbc 2a88 3c3c bdfb 3ebd
00000270: 9476 cc3d b7d8 0f3d 79bf 333d 549b 363c
00000280: dd7b 35bd e6c6 d3bd 9aab cdbc c56b 5c3c
00000290: d13a 98bd e3b9 37bd 4a36 ca3d cd2d adbd
000002a0: 29fe 303b 8718 6e3c e021 a9bd 399c 8dbd
000002b0: 3d92 333d 1181 90bd 49a2 b73d a4c9 0a3d
000002c0: ea81 82bd 94d2 f53c 2f04 263c 6c9a 3d3d
000002d0: 1103 9cbd fe47 933d 2ef3 923d 58ed c63d
000002e0: 2420 cfbd b389 ad3c b7a3 1ebc 7fc3 49bb
000002f0: a151 23ba 4dd1 d7bb 3e59 cbbc b14f 91bd
00000300: 5eef bbbc 730c 46bd 9645 14bc edb2 0f3d
00000310: 3b19 a23a 1f89 733c a7a9 a2bd 9522 343d
00000320: fe48 9dbd c496 59bd 20ac 033d 4f24 903c
00000330: 3234 abbd 6dad 20bd b081 b93c 9901 363d
00000340: 994b a03d 9dfe d9bc 7841 7ebc 319f 64bd
00000350: f2da 7b3d 0d41 3abc db3b 8a3d 9ac5 fa3c
00000360: 8da4 0bbd 13e4 40bd b9bb 4dbd 80c0 15bc
00000370: 0f53 c4bb 4182 d1bd 739c 173d ad40 0f3d
00000380: 6643 003d c6ee 86bd 2f39 90bc 66a4 5e3a
00000390: 6e74 b1bb 452c 5ebd 8200 233d 1581 403d
000003a0: b43c a9bc 6a76 a83d 5ff1 bcbc be95 3cbb
000003b0: b779 edbd d20c 88bd b916 d3bc d006 b6bd
000003c0: f989 103d 1af2 7e3a e17f 09bd be15 493d
000003d0: b3c5 bbbb 194f aabd d76b c4bd 12b1 d73c
000003e0: 11a2 5dbb 6120 5d3d bc48 e6bc 3800 a4bd
000003f0: 0ecd 493d f4fa 423d 8d75 743d 1e35 e83c

mlp.2.bias f4 [64]
0.03253205 0.01638452 -0.0066766776 0.025316857 -0.060125783 -0.043919086 0.06390856 0.009656395
0.068198256 -0.039226033 -0.04800922 0.04449763 0.0010674676 0.08647682 -0.076450385 0.048856173
-0.06398351 0.045631286 0.016594822 -0.024722574 -0.057199582 -0.040735506 -0.078467965 -0.05999783
-0.07534895 -0.02085534 -0.029655136 -0.072126366 -0.07847921 -0.03384382 0.0012908673 0.052454315
-0.0638214 -0.06690336 -0.076449 0.057860367 0.03804379 -0.01286512 0.040329844 0.07149545
-0.05022219 0.009905458 0.07417443 -0.053620607 -0.033375405 0.010868083 -0.04171082 0.073478505
-0.078228 -0.03615818 -0.052063297 -0.037409183 -0.050738096 -0.0716689 -0.028439177 -0.001297454
0.059337273 -0.066392936 -0.030258866 0.02324341 0.08675243 -0.00031922397 0.07869788 -0.0476199
00000000: 5440 053d d438 863c 08c8 dabb 4c65 cf3c
00000010: 7446 76bd 80e4 33bd 7ee2 823d db35 1e3c
00000020: 87ab 8b3d 7aab 20bd 51a5 44bd 2643 363d
00000030: 45ea 8b3a c21a b13d 0592 9cbd 691d 483d
00000040: c909 83bd dfe7 3a3d ddf1 873c ff86 cabc
00000050: 1c4a 6abd 46da 26bd d0b3 a0bd 49c0 75bd
00000060: 8d50 9abd d1d8 aabc 54ef f2bc fdb6 93bd
00000070: b5b9 a0bd d19f 0abd 5232 a93a 56da 563d
00000080: cbb4 82bd a104 89bd 4b91 9cbd fefe 6c3d
00000090: ced3 1b3d 39c8 52bc e830 253d 356c 923d
000000a0: c8b5 4dbd 814a 223c c3e8 973d 48a1 5bbd
000000b0: a6b4 08bd 0b10 323c f7d8 2abd e67b 963d
000000c0: 0036 a0bd 9a1a 14bd 5340 55bd 5f3a 19bd
000000d0: c0d2 4fbd 25c7 92bd 47f9 e8bc 550f aaba
000000e0: a40b 733d 05f9 87bd 71e1 f7bc f768 be3c
000000f0: 42ab b13d 845d a7b9 5b2c a13d 160d 43bd

mlp.5.weight f4 [2, 64]
0.035426702 -0.07441088 -0.09336929 0.10546515 -0.08647084 0.051698115 0.034130864 0.08092758
0.10599408 0.13459408 0.11478135 0.048290487 0.043359447 -0.0054433243 -0.08891833 0.068561874
0.0045143585 -0.14118798 -0.13349795 -0.06381729 -0.14615126 0.100536495 -0.12247623 -0.113306336
-0.14020188 0.09837568 0.06922835 -0.09568121 0.051793516 -0.11536302 0.11947216 0.077871874
0.13510606 0.03843354 0.11453501 -0.093140595 -0.0046032043 0.07851941 0.16628984 -0.05457497
-0.1319936 -0.042988013 -0.055623926 0.0051954268 -0.03450059 0.122821204 0.007064184 0.09910292
0.10173485 0.02220537 -0.06811852 -0.09633726 0.021210775 0.028524745 -0.05606042 0.1049271
0.11782277 0.14212403 -0.06029122 0.060794037 0.12096645 -0.011667804 0.01161797 0.079132155
0.18664694 0.021878581 0.057065323 0.030478682 0.0524102 -0.13036326 -0.09058167 0.12775509
-0.12241225 -0.132179 -0.12579843 -0.009501878 -0.15407191 -0.14812031 0.080560006 -0.10109094
0.1562519 0.090718105 0.037269298 0.13288938 0.15889218 -0.03182775 0.0062905713 -0.039017983
0.052321497 -0.03004658 -0.097341485 0.016138723 -0.06771046 0.032776657 -0.051134534 -0.022643548
-0.037278492 -0.09282523 0.048962705 0.032156806 -0.100040115 -0.010121151 0.06433162 0.03071246
-0.016828505 0.05796804 -0.13678363 0.09754331 0.105730645 0.030881405 -0.1046873 -0.033731017
0.0013966206 -0.11235372 0.09379754 0.08067337 -0.13985291 -0.090180665 0.1608747 -0.078889735
-0.13806416 -0.026852941 -0.12401251 -0.0890836 -0.076039016 -0.10416172 -0.10784694 -0.124064915
00000000: 971b 113d bb64 98bd 6638 bfbd 1dfe d73d
00000010: a017 b1bd 67c1 533d cecc 0b3d 5cbd a53d
00000020: 6d13 d93d 08d3 093e 7c12 eb3d 3fcc 453d
00000030: ad99 313d ea5d b2bb d01a b6bd 2b6a 8c3d
00000040: 2fed 933b 9593 10be b0b3 08be a4b2 82bd
00000050: ada8 15be 14e6 cd3d d1d4 fabd 270d e8bd
00000060: 1591 0fbe 3079 c93d 98c7 8d3d 83f4 c3bd
00000070: 7025 543d 7243 ecbd d2ad f43d 4a7b 9f3d
00000080: 3e59 0a3e 7d6c 1d3d 5591 ea3d 7fc0 bebd
00000090: 7ad6 96bb c9ce a03d e247 2a3e 018a 5fbd
000000a0: 5529 07be 3314 30bd ead5 63bd 663e aa3b
000000b0: 7e50 0dbd af89 fb3d ac7a e73b 79f6 ca3d
000000c0: 5c5a d03d 09e8 b53c b981 8bbd 784c c5bd
000000d0: 38c2 ad3c baac e93c 9c9f 65bd 05e4 d63d
000000e0: 104d f13d f688 113e edf3 76bd 2b03 793d
000000f0: 42bd f73d 512a 3fbc 4c59 3e3c 0a10 a23d
00000100: 6020 3f3e b63a b33c 54bd 693d 6eae f93c
00000110: 14ac 563d f27d 05be e282 b9bd 3bd2 023e
00000120: 46b3 fabd ef59 07be 4ed1 00be c4ad 1bbc
00000130: 07c5 1dbe daac 17be a5fc a43d c408 cfbd
00000140: 8000 203e 6aca b93d b1a7 183d 2714 083e
00000150: a2b4 223e d15d 02bd 2321 ce3b 52d1 1fbd
00000160: 114f 563d 3f24 f6bc f95a c7bd 5b35 843c
00000170: c8ab 8abd d140 063d 7272 51bd f67e b9bc
00000180: 55b1 18bd 271b bebd 1e8d 483d dbb6 033d
00000190: d5e1 ccbd 2fd3 25bc 4cc0 833d b298 fb3c
000001a0: efdb 89bc e56f 6d3d 0211 0cbe c9c4 c73d
000001b0: 4f89 d83d 00fb fc3c 4c66 d6bd 8929 0abd
000001c0: d00e b73a b519 e6bd ed18 c03d 1438 a53d
000001d0: 9a35 0fbe a4b0 b8bd 56bc 243e f190 a1bd
000001e0: b160 0dbe b3fa dbbc 45fa fdbd 7671 b6bd
000001f0: 58ba 9bbd bd52 d5bd dbde dcbd bf15 febd

mlp.5.bias f4 [2]
-0.019438973 0.069093704
00000000: 7b3e 9fbc 0081 8d3d
